flood_forecast/da_rnn/checkpoint/decoder.pth (torch_old, 120986 bytes, 9 tensors)

attn_layer.0.weight f4 [64, 192]
000000 29 41 f4 bc b7 e4 53 3d bf f7 80 bd 28 e4 98 bd
       -0.029816227 0.05173179 -0.06297254 -0.07465392
000010 dc 52 72 3b 11 c3 bb bc f4 1b 95 3c 7c 7b e2 3c
       0.0036975658 -0.022920163 0.018201806 0.027646773
000020 ae 86 9b 3c fe f6 c9 3c de eb 4f 3d e3 9c 11 3d
       0.018985119 0.024653908 0.05076205 0.03555001
000030 f4 eb f9 bc 8c b1 1d bd 0e 61 f4 bd 38 dd c0 b9
       -0.030508019 -0.0384994 -0.11932574 -0.00036785915
000040 f7 d2 06 3d 57 57 37 3d 78 75 04 3d 4e 86 ab bc
       0.032916036 0.04476103 0.03233859 -0.020938065
000050 fb 51 82 3d 47 7e 24 bd 04 14 1f 3b 72 c1 16 3b
       0.06363293 -0.04015949 0.0024273405 0.0023003486
000060 ec a8 4f bd bb 47 e9 bc 7c 30 26 bc 5b 56 1e 3d
       -0.050698206 -0.028476587 -0.0101433955 0.038656574
000070 54 ab 9f 3d 7a 6f 0b 3c d5 c5 b0 3d 2d ec 00 bd
       0.0779635 0.008510465 0.086314835 -0.031475235
000080 7c f2 1f bc a5 e9 ad bc e7 a0 a9 bc 6f e6 11 bd
       -0.009762403 -0.021229574 -0.020706607 -0.03562015
000090 5e 16 30 bb 24 d0 ab bd 4c 15 6a bc 71 75 d8 bb
       -0.00268688 -0.08389309 -0.014287304 -0.006605797
0000a0 56 03 5a 3b 5e 9f 61 3c 56 08 59 bd 7a d4 df bb
       0.0033266149 0.013770906 -0.052986465 -0.006830749
0000b0 3e 79 64 bd b5 b5 ed bc 0b 63 75 3d f4 0f c5 bd
       -0.055779688 -0.029017309 0.059908908 -0.096221834
0000c0 c1 0b 4f 3d a6 ca 67 3d 85 d4 37 3d 80 cd 4c 3d
       0.05054832 0.056589745 0.04488041 0.050000668
0000d0 ea 6d 55 3d 64 9a 3b bd 99 58 de bc c6 aa ee bc
       0.052106775 -0.045801535 -0.027141856 -0.029134165
0000e0 91 a0 69 bd 34 88 84 3d 04 15 5e 3c fd 3e ab bd
       -0.057037894 0.06471291 0.013554815 -0.083616234
0000f0 3e 67 b5 bb 51 a6 a1 bd 7f 5d 0d bd ee 48 27 3c
       -0.005535989 -0.078930505 -0.034512993 0.010210259
000100 1c c5 9e ba d6 e7 ae 3d b6 0a b8 bd 9a 03 dd bd
       -0.0012113187 0.08540313 -0.08986418 -0.107917026
000110 a8 38 f2 bc d8 e2 20 3d 3d 72 40 3d ef cc c9 bb
       -0.029568031 0.039278835 0.046983946 -0.006158463
000120 38 fb 9d bc 0a 94 04 3d 9e ab fc 3c 94 f5 81 bc
       -0.01928483 0.032367744 0.030843552 -0.015864171
000130 42 9e c3 bd 0a 1d a3 bc 98 89 a0 3c dd 08 05 3e
       -0.0955167 -0.019911308 0.01959686 0.12991662
000140 88 4d 89 bd 3f 0a 89 3d 1a 41 00 3c 70 a9 9f bd
       -0.06704241 0.066914074 0.007828021 -0.077959895
000150 33 15 7f bc 45 e3 5f bd 46 6f 5e bd 66 cd bc 3c
       -0.015569019 -0.0546601 -0.054305337 0.02304716
000160 c9 a5 65 bd 4f 18 39 bd b8 87 b3 3c 84 28 93 bc
       -0.05606631 -0.045189198 0.021915302 -0.017963655
000170 66 05 b6 3b e2 da 03 bd 70 fa 34 3d 61 97 ae bd
       0.0055548428 -0.032191165 0.04418415 -0.08524967
000180 f6 ce 8f 3c c5 fe 9c bc 99 df 57 bd 1e 6b da bb
       0.017554741 -0.019164452 -0.052703474 -0.0066656014
000190 d8 59 6c bc 74 b5 ba 3c cf 09 a3 bd 56 cc e2 3c
       -0.014425717 0.022791602 -0.07960855 0.027685326
0001a0 6a cd d4 bc 5f e5 40 bd d7 08 36 3d e8 e4 8f 3c
       -0.025976855 -0.047093745 0.044442024 0.017565206
0001b0 cc 5a b7 bc c4 2e 30 3c 6d 2c e2 3c 07 25 59 bd
       -0.022382163 0.010753337 0.027609074 -0.053013828
0001c0 1c 3e 5c 3c 19 6a 4e bd 64 8f b4 bd a4 f0 46 bc
       0.013442542 -0.05039415 -0.08816412 -0.012142334
0001d0 bc e2 56 bc 60 4e ce 3c ea 11 8f 3d 71 79 55 3c
       -0.013115581 0.025183856 0.06985839 0.013029442
0001e0 4e 36 4b bd 86 2d b6 3d 44 7f 5b 3d 08 34 9f bd
       -0.049612336 0.08895402 0.053588167 -0.07773596
0001f0 f1 ec 98 3d 19 e5 23 bd cc 90 c0 bd 60 78 89 bb
       0.07467068 -0.040013406 -0.09402618 -0.004195258
000200 92 1f dd bc 1c 84 e5 3b ad 84 cf bd 2c ff e9 3c
       -0.026992593 0.007004274 -0.10132728 0.028564058
000210 66 eb 94 bd f7 ac bc 3d 3f 1d 9b bd 70 b8 f9 3c
       -0.07271461 0.09212678 -0.075739376 0.030483454
000220 01 2f d7 3d 4c 36 ba 3d ca f8 18 bc bc ec b3 3d
       0.10507012 0.090923876 -0.00933666 0.08785388
000230 86 50 23 bc 1e b8 6d 3d 8c 0d 93 3c 29 6a 55 bd
       -0.009967929 0.058036916 0.017950796 -0.052103195
000240 64 ff 5c bd bb 54 d2 3d 76 d0 ac 3d e6 fb d7 3d
       -0.053954497 0.10270067 0.08438198 0.10546093
000250 2c f8 a0 3b a2 99 16 bb 26 5e ec bd 1a aa 08 bd
       0.004912397 -0.0022979756 -0.11541395 -0.033365346
000260 b0 5e 8f bd 10 1f 5a bd ce f8 bc ba c3 fd fb 3b
       -0.07000482 -0.05325228 -0.0014417411 0.007690163
000270 e7 73 da 3d d3 a2 64 bd 3c 6d 0f bc c7 44 9d bd
       0.10666638 -0.055819344 -0.008754071 -0.07679134
000280 3e c6 d9 bd f2 f6 b3 bd d1 f4 39 bc 78 f1 4e bd
       -0.10633515 -0.087873355 -0.011349873 -0.05052325
000290 69 ff b6 bd 1a 84 9f bd 7d 0d 53 3d f6 10 ad bc
       -0.08935434 -0.07788868 0.051526535 -0.021126252
0002a0 90 cf 2a bd 74 39 23 bc c3 f2 85 bc 3a 21 e0 bd
       -0.041701853 -0.009962428 -0.01635111 -0.109438375
0002b0 a7 f3 df bd 58 ad 95 bd b6 98 6e bd e0 a6 c5 3d
       -0.10935145 -0.07308453 -0.058251105 0.096509695
0002c0 a6 b0 d2 bc 00 67 70 3a cc cc 41 3d 47 7d 28 3d
       -0.025718998 0.00091706216 0.04731445 0.0411351
0002d0 79 58 cc 3b f2 90 a0 bd 75 17 87 bd 24 b5 8f 3d
       0.0062361327 -0.07840146 -0.06596271 0.07016972
0002e0 a1 4f e0 3d c2 11 a0 bd be 92 bd bd 80 20 c8 bd
       0.10952688 -0.07815887 -0.092565045 -0.09771824
0002f0 83 04 d8 bd 8f e5 47 3d 03 6f 6c bc 78 de 59 bd
       -0.105477355 0.04880291 -0.014430764 -0.05319068
000300 06 4f a4 bd 3d 9a d6 bd bf 8f b3 3d d2 e5 90 3b
       -0.08022885 -0.10478637 0.08767652 0.004421928
000310 fb c7 31 bc b8 cc e8 3d 81 ce 01 bd 79 5d 35 bd
       -0.010850902 0.11367172 -0.031691078 -0.044278596
000320 9c 8c 47 bc 1f 82 cd 3d 2b 69 a6 3b 63 1e 15 3d
       -0.01217952 0.10034584 0.005078455 0.036405932
000330 5d d4 a6 bc d1 70 b3 3c ac a2 b4 3b e8 50 84 bc
       -0.020364935 0.021904381 0.005512556 -0.01615186
000340 61 c3 d4 3d 3a 12 35 bd 3d 99 4d bd 67 72 f4 3d
       0.10388828 -0.044206835 -0.050194968 0.11935883
000350 41 e4 a9 3d b0 7c e9 bd c9 27 fe 3c 5f e4 06 bc
       0.08295489 -0.114007354 0.03102483 -0.008233159
000360 c2 cd c6 3c 35 30 c8 bc f5 5d 85 bd a4 0f bf 3c
       0.024268035 -0.02443705 -0.065120615 0.023322888
000370 a9 e7 c3 3c a4 20 55 3b 84 16 65 bc 8d e3 ca 3d
       0.023914175 0.0032520676 -0.013982419 0.09906683
000380 58 66 c4 3b f6 fe a8 bd 18 01 7b 3d 4b 62 78 3d
       0.0059936456 -0.08251755 0.06128034 0.060640614
000390 33 7a e8 bc 5b 27 21 bd 46 b2 84 bd 31 4a 00 bc
       -0.028378582 -0.039344173 -0.064793155 -0.007830189
0003a0 cc 11 87 3b 8d c5 fc bb bd 64 9f 3d f9 66 b7 3d
       0.0041219946 -0.0077139796 0.07782886 0.08955187
0003b0 54 ca e6 3d 43 ce f3 bd a0 a8 47 3c 24 35 52 3d
       0.1126906 -0.11904576 0.012186199 0.05132021
0003c0 61 8f d0 3d 04 7f e4 bc db fd 16 bc aa 69 ea 3d
       0.10183597 -0.027892597 -0.009215797 0.11445935
0003d0 93 17 99 3c 2b df d4 bc d1 95 12 3d c7 40 f7 bd
       0.018687999 -0.025985321 0.035787407 -0.12072902
0003e0 8b 6f e6 bc a8 ec 12 3c 9a ce b9 bd 43 c3 ac 3d
       -0.02812936 0.008967556 -0.09072609 0.08435681
0003f0 5e 33 ae bd aa 63 1f 3d e7 a3 10 3d 40 49 b5 3d
       -0.08505891 0.038913406 0.03531256 0.08851862

attn_layer.0.bias f4 [64]
000000 52 7c 5f bb a7 88 2f bd a1 0a bc bd b9 55 ed bc
       -0.00341012 -0.04285493 -0.09181715 -0.02897154
000010 d2 d8 4c 3d 44 9f 0e 3c e8 fa d8 3b 22 b6 b7 bb
       0.050011463 0.008704964 0.006621707 -0.0056064287
000020 7f 75 34 bd ae 27 03 3e 86 ee 1d 3b f6 8e 1c 3d
       -0.044057366 0.12808105 0.002409847 0.038222276
000030 13 58 d9 ba 65 c3 e6 3d 04 99 aa 3b 1c e4 6d bd
       -0.0016582034 0.11267737 0.005206229 -0.05807887
000040 c3 b9 46 bd 8b 29 a6 bb 06 16 df bc 58 8e 0b bc
       -0.048517 -0.0050708703 -0.027232181 -0.008517824
000050 30 cd dd 3c 72 99 be 3c cb d5 87 bd ca 54 67 ba
       0.02707538 0.023266528 -0.06632575 -0.0008824585
000060 ab 00 8c bd 00 da 63 3d ca 3e db bc 82 cf 9a ba
       -0.06836065 0.055627823 -0.026763339 -0.001181111
000070 d9 53 6d 3c d8 b2 01 bd e8 99 62 bd 4e a1 07 3c
       0.014485323 -0.0316647 -0.055322558 0.008278204
000080 b8 e2 45 ba c5 ee 45 bd e0 26 52 3d 8c be 57 3d
       -0.00075487373 -0.04832341 0.051306605 0.052671954
000090 e1 3f 18 3c 4e 75 07 bd a2 72 1e bd 63 64 9b 3d
       0.009292574 -0.033070855 -0.03868354 0.075875066
0000a0 d2 85 31 3c dc 5a e0 bd d6 36 e2 bb f3 10 93 bc
       0.010835128 -0.1095483 -0.0069035096 -0.017952418
0000b0 0a 68 95 bb 5c 61 38 3b 2c 9d 96 bd 96 a7 42 bd
       -0.0045595216 0.0028134203 -0.07354197 -0.047523104
0000c0 79 c3 77 3d 7a e1 61 bc a0 4c d6 bd 65 6a 9e bd
       0.06048915 -0.013786668 -0.10463834 -0.07735137
0000d0 4a 2e df 3c 80 74 f4 bd 0a 6b 21 bd ac 3b 07 3b
       0.027243752 -0.11936283 -0.03940872 0.0020634932
0000e0 07 f7 ef 3c 97 9b 6b 3d 8f 5d b6 bd be 08 35 3d
       0.029292597 0.05752143 -0.08904564 0.04419779
0000f0 eb c8 c1 3d f3 af 83 bb 63 9f 5d bd 1f 85 e5 bd
       0.0946215 -0.0040187775 -0.05410708 -0.112070315

attn_layer.2.weight f4 [1, 64]
000000 d7 1f da bd 2e fa de 3c e2 94 ed 3d bc 53 2a 3e
       -0.10650604 0.027218904 0.11600663 0.16633505
000010 8c 4b 83 bc 56 93 90 bd d0 a5 29 3e 66 bc fc bc
       -0.016027234 -0.07059352 0.16567159 -0.030851554
000020 70 07 59 be b3 58 9c bc 72 a7 12 3e d5 09 55 3e
       -0.21194243 -0.019085264 0.14321688 0.20804532
000030 6a dd dd 3b 47 ec 0e 3d a8 a8 39 be c6 cb 34 3e
       0.0067707794 0.0348933 -0.18130744 0.17655858
000040 b7 b1 1e 3e 0d 10 30 3e 69 00 c4 3d ad 7a f9 bd
       0.1549748 0.17193623 0.09570391 -0.12181602
000050 2c 81 4e bd bc db 4a be 1c 86 c2 3d 79 b5 0b 3e
       -0.050416157 -0.19810385 0.094982356 0.13643445
000060 2e c5 eb bd af 51 53 3c 2a 61 4f 3d 58 11 bf bb
       -0.115122184 0.012897893 0.050629772 -0.005830925
000070 d0 e1 42 bc 0a bb 11 3e 4f f3 46 be b0 18 31 be
       -0.011894658 0.14231506 -0.19428752 -0.17294574
000080 c2 4d bf 3d 36 27 24 3e 52 2d 08 3e df e4 34 be
       0.09341003 0.16030583 0.13298538 -0.17665432
000090 01 ef 21 be fc e9 2e 3e c9 ad dc 3d d9 85 5d 3e
       -0.15813829 0.17081445 0.107753344 0.2163309
0000a0 b7 c8 ed 3d 19 2f 26 bd 1e 8c 07 bd fc 7d 4a be
       0.11610549 -0.04057226 -0.03309261 -0.19774622
0000b0 0a 77 33 bd d4 23 dc bd 35 dc d7 bc e7 ca c9 3d
       -0.043814696 -0.10749021 -0.02635012 0.09853154
0000c0 9b 85 b0 bb 95 9e 0f bd c6 b0 b6 3c ba 7c 04 3c
       -0.0053870208 -0.035063345 0.022301089 0.008086378
0000d0 60 ec 4c 3d ff e5 0b be 6c ae 10 be b8 8a bb bd
       0.050030112 -0.13661955 -0.14129037 -0.09157318
0000e0 70 df b3 3d 89 06 00 be fa e8 46 3d 28 20 b8 bd
       0.08782852 -0.12502493 0.048562028 -0.08990508
0000f0 63 4a 2e bd 92 4d 3b bc 85 16 ce bd 70 c9 18 be
       -0.04255141 -0.011432068 -0.10062889 -0.14920592

lstm_layer.weight_ih_l0 f4 [256, 1]
000000 44 3b 91 bc 82 e8 fc bd 96 5c 3d bd cb db a8 bd
       -0.017728455 -0.12349035 -0.046230875 -0.08245047
000010 9f bf a7 bc c6 fc 18 bd 1f 5c 34 be a4 3e f3 3c
       -0.020477114 -0.03735044 -0.17613266 0.029692955
000020 28 ae 97 bc 3f 8b 95 3d 06 d1 2e 3d 44 7f 22 bc
       -0.018515661 0.0730195 0.04267981 -0.009918038
000030 f3 11 72 3d f0 d6 ea 3d 56 1f 12 3b c1 3d 52 bd
       0.05909915 0.11466777 0.002229651 -0.051328424
000040 40 29 9f 3d f6 65 bb 3d ec 61 88 3c 29 3d a0 3d
       0.0777154 0.09150307 0.016648255 0.078241654
000050 6e 8a 64 bc 6e fb ef 3d a6 c3 fd bc da d7 30 3e
       -0.01394902 0.11717878 -0.030977082 0.17269841
000060 fd 07 0b 3e 1f 9d c2 3d 0b 66 4e 3c d5 44 b1 3d
       0.13577266 0.09502625 0.012597571 0.08655707
000070 1d c9 a1 bc ae e8 7e bc 4e 96 46 3e c3 bf 20 be
       -0.019749219 -0.015558405 0.19393274 -0.15698151
000080 f5 00 2c 3e 0b 48 1c 3d b5 ef 11 be ed 20 bf 3d
       0.1679724 0.038154643 -0.14251597 0.09332452
000090 03 bf 2a 3c d2 4a 88 3c 25 08 31 be a9 15 e1 3d
       0.010421517 0.01663724 -0.17288263 0.109904595
0000a0 32 e6 2b bc c4 cc 9c 3d ed 43 a0 3c 9e d6 52 3e
       -0.010491895 0.076562434 0.01956364 0.20589682
0000b0 22 5b d5 3d 73 bd fc 3d c1 89 b6 3c 0b 40 23 bd
       0.10417773 0.12340822 0.022282483 -0.039855998
0000c0 02 fc 3a 3d 84 93 66 3d bd 6e c0 bd b2 19 37 3c
       0.04565049 0.056293026 -0.09396122 0.01117556
0000d0 ce fa f2 3d 7d 51 5d 3c c6 d7 d6 bc 95 09 19 bc
       0.118642434 0.013508198 -0.026225936 -0.009340663
0000e0 6f 10 4e 3c 90 3a ce 3d 9e 5b 9c 3b 55 a2 0b 3d
       0.01257716 0.10069764 0.004771664 0.03409036
0000f0 6a 79 12 3e be 61 8e 3d a4 7d cb bc 93 53 72 3d
       0.14304128 0.069522366 -0.024840184 0.059161734
000100 1d 83 20 3e e7 47 a7 bd 94 fd 5a bd 13 30 82 bb
       0.15675016 -0.08168011 -0.053464487 -0.003973016
000110 30 03 dd 3d 2c f9 00 3e 97 72 2b 3d 01 93 ea bd
       0.107916236 0.12595052 0.04185733 -0.1145382
000120 df 21 fa bc ad 67 b1 bd 83 41 a9 3c 20 79 98 bb
       -0.03053373 -0.08662353 0.020661121 -0.004653111
000130 6a 62 f5 3c 0e 2c b7 3d 72 cb 0a be 5d b7 04 be
       0.029954154 0.0894395 -0.1355417 -0.12960573
000140 60 f1 71 3d 3e 57 a3 bd c1 d6 50 3e be 8a 8f 3d
       0.059068084 -0.079756245 0.20394422 0.07008885
000150 ae fd ea bc c7 ae 1e 3d d5 6a 2b 3e fd 6e 33 3d
       -0.028685417 0.0387409 0.16739972 0.04380702
000160 a6 af 01 3e 9a 49 e8 3d 30 bc f8 3c 08 86 49 ba
       0.12664661 0.113421634 0.030363172 -0.0007687514
000170 ba 6c 45 3e 87 18 0f 3e fb b0 06 bd fe fa e3 bd
       0.19279757 0.139742 -0.032883625 -0.11131857
000180 e2 c1 1b 3d b5 7a df bc ed 52 11 bd 6d 56 18 3d
       0.038026698 -0.027280191 -0.035479475 0.037191797
000190 ad 33 27 3d 7d ee 3f 3e 16 e9 20 bc a0 03 21 be
       0.040820766 0.1874332 -0.009821197 -0.15724039
0001a0 dc aa c2 3c d9 82 d4 3c 00 25 13 be 5b e6 58 3c
       0.023763113 0.0259413 -0.14369583 0.013238515
0001b0 1e 74 14 3e 2e dc 87 3d 4d 3b ca 3d d7 06 9d bd
       0.1449742 0.06633793 0.09874592 -0.0766732
0001c0 6f cd c0 bd ef f0 2b 3d 7b 48 af bd 88 75 66 3d
       -0.09414183 0.04197782 -0.085587464 0.05626443
0001d0 89 de f0 3d d4 72 b8 3c 31 d2 8c bc c1 17 16 bd
       0.11761195 0.022515692 -0.01719007 -0.036643747
0001e0 8a 6b a6 bc 60 4e 35 3d 9f e6 02 bd 48 75 94 bd
       -0.02031495 0.044264197 -0.03195822 -0.07248932
0001f0 56 ec 4e 3d dd 4c f0 3c 21 87 19 be 81 2e a6 3d
       0.050518356 0.029333526 -0.14992954 0.08114339
000200 58 de b6 3d 51 ce 45 3d 84 d2 25 3d 99 0e 04 bd
       0.089291275 0.04829246 0.040483966 -0.032240484
000210 1b 14 2a 3e 85 c8 28 be 84 c1 f5 bc 42 77 de bc
       0.16609232 -0.16482742 -0.029999502 -0.027156476
000220 b4 eb b7 3d ba 01 04 be 70 c1 2f be 36 5d 00 3e
       0.08980504 -0.12891284 -0.17163634 0.12535557
000230 a4 b8 1b 3d 50 ac a9 bd 34 7e 59 bc e9 fd 3a bd
       0.038017884 -0.08284819 -0.013274718 -0.045652304
000240 c5 51 d3 bd 8f 22 ab 3d 11 c3 27 3e 13 8f c4 bd
       -0.10318331 0.08356201 0.16383006 -0.09597602
000250 57 4c 3b be 5e 86 f3 3d c6 02 2d be 97 37 23 3e
       -0.1829084 0.11890863 -0.16895589 0.15939175
000260 f2 c8 08 3e 30 9e 21 3e da 09 f2 3d 69 f8 6a bd
       0.13357905 0.15783 0.11818285 -0.05736581
000270 fd 1f e7 bd 17 ed c2 3d 7e 2f 22 be 4f be 8d bd
       -0.11285398 0.095178775 -0.1583843 -0.06921064
000280 40 5a f9 3d 67 96 22 3e 4b 21 c5 bd 46 c6 28 be
       0.12175417 0.15877686 -0.09625491 -0.16481885
000290 cf b0 c2 3d c9 70 38 3e a0 3b db bd a7 b7 8d 3d
       0.0950638 0.18011774 -0.10704732 0.069197945
0002a0 9c ae 15 be b3 c2 c9 3d bb fd f5 bd 59 4b a1 bd
       -0.1461739 0.09851589 -0.12011286 -0.078756995
0002b0 bf 07 11 be ab 8d ae 3d ce de b9 3d 9b 9e 61 bd
       -0.14163111 0.08523115 0.090757 -0.0550829
0002c0 26 14 5b bd fc 28 02 be c5 e4 c1 3c e5 2d fc bd
       -0.053486012 -0.12710947 0.023668656 -0.12313441
0002d0 97 94 19 be 57 4f ee 3d b7 84 ac bd 19 58 11 3e
       -0.14998089 0.116362266 -0.08423751 0.14193763
0002e0 c8 27 15 3e 5b ac 22 bd 2c 36 11 3e 2c 63 9c 3c
       0.14565957 -0.039715152 0.14180821 0.019090258
0002f0 61 87 96 3d 36 88 e0 bd 62 1c 00 3c ee a3 23 be
       0.0735004 -0.1096348 0.007819267 -0.15980503
000300 9c 51 21 3e 63 fb c2 bd ce f0 82 3d 12 4f 3a bd
       0.15753788 -0.095206045 0.06393586 -0.045485564
000310 16 ef e6 3c 4a 1e 32 3e e3 2f 4d bd 9e e4 2f be
       0.028190177 0.17394367 -0.050094496 -0.17177054
000320 76 cc 10 3c e5 57 92 bd 30 33 07 3e 8c a6 e0 3c
       0.00883781 -0.07145671 0.1320312 0.027423166
000330 0f 99 16 3d 95 5a 1b be 60 28 9f bd 3c 74 a6 3c
       0.03676706 -0.15171273 -0.07771373 0.020319097
000340 8d 57 25 3d 88 7d 2d bd e9 42 9c 3d 62 c8 ef bd
       0.040366698 -0.042356044 0.076299496 -0.11708142
000350 9f 5b 63 3e 50 d4 24 3e 08 6a 00 3b d3 19 5c 3d
       0.2220292 0.16096616 0.001959445 0.053735565
000360 62 12 42 3d 1d 80 1c 3d b3 3b f3 bd 4b b6 58 3d
       0.047380812 0.038208116 -0.11876621 0.052908223
000370 ff f7 26 3e 9a 0d 1c bd b0 90 17 3d 9e 62 45 bd
       0.1630554 -0.03809891 0.03700322 -0.04818975
000380 2c c7 b9 3d 15 cd 44 3e 79 82 1e be 33 f6 1a 3e
       0.09071192 0.19218858 -0.15479459 0.1513298
000390 3e b7 84 3d c4 2a d2 3d ac 84 13 be ba 47 d0 3d
       0.06480263 0.10262063 -0.14406079 0.10169931
0003a0 3d 33 04 bc 27 c4 da 3d 81 d8 07 be 1b 1f d6 3c
       -0.008068857 0.10681944 -0.13266183 0.02613788
0003b0 7d 88 f6 bd b4 6f 27 bd d5 65 42 3e a5 85 46 bd
       -0.12037752 -0.040878013 0.18984158 -0.048467297
0003c0 04 94 85 3c 5d 7c 4f 3e f8 80 24 be b7 b7 a3 3d
       0.01630593 0.20262285 -0.16064823 0.07994025
0003d0 c5 78 0f 3e 6f 07 2b 3e 51 fa 3c 3e b2 11 16 3e
       0.14010914 0.16702054 0.18454863 0.14655188
0003e0 cc 25 1f 3d b4 92 07 3e dc f0 03 3e 00 60 0a be
       0.038854405 0.13239557 0.1288485 -0.13513184
0003f0 65 7d 31 3e ac ca bf bd c3 aa bb bc ab 89 c4 3d
       0.1733299 -0.093648285 -0.022908574 0.095965706

lstm_layer.weight_hh_l0 f4 [256, 64]
000000 db fc a5 bd bc 84 ae 3d 10 71 df 39 b4 6e 0c 3d
       -0.08104869 0.08521411 0.00042618113 0.034285262
000010 3e 89 cb 3c 25 04 1a be 3c 9d b0 bd 48 58 00 be
       0.024845716 -0.15040644 -0.0862374 -0.12533677
000020 cc b4 4c 3d 47 83 db 3d 7b 36 e4 bd ac 3c 9e 3c
       0.04997711 0.107183985 -0.11143204 0.01931604
000030 2f 81 61 3c e1 43 2c bd 55 e9 ee 3c f3 4a 1b be
       0.01376371 -0.042056922 0.029163996 -0.1516531
000040 7f 8a 22 be 34 f1 14 be 5d 47 e8 bc 21 63 99 bc
       -0.15873145 -0.14545137 -0.028354341 -0.018724026
000050 e3 b9 f1 bc ff 4f 71 bd e1 18 18 bd 76 2d 9f 3d
       -0.029507583 -0.05891418 -0.0371331 0.07772343
000060 ac 84 cd bc 43 6c 53 bd 54 c9 34 bd dc 15 c5 bd
       -0.025087677 -0.05161692 -0.044137314 -0.0962331
000070 41 3a 33 3c 06 09 59 3d ca 73 e6 3c da 7a a9 3d
       0.010939182 0.05298712 0.028131384 0.08275385
000080 66 bb 9a bd a4 ea b5 3c 10 c6 44 3d bc ac c4 bd
       -0.07555275 0.022206612 0.04804045 -0.09603259
000090 da cc 78 3d e9 0d 2d 3e 1f 6d 57 bd c8 aa 5f bd
       0.060742237 0.16899838 -0.0525943 -0.05460623
0000a0 4f 6c 15 be 6f e6 e3 3d 8d ee 94 bb 48 d9 68 bd
       -0.14592098 0.11127936 -0.004545039 -0.05684784
0000b0 60 68 b4 bd 51 ce 32 3e ba ba b3 3d 20 85 f8 bc
       -0.088089705 0.17461516 0.0877585 -0.030336916
0000c0 15 78 b0 bd 68 89 17 be ab 45 86 3d 7e fe 11 3d
       -0.08616654 -0.1479851 0.06556257 0.035643093
0000d0 23 d2 9e bd f8 8d 61 3c 0c d2 68 3d 38 05 7e ba
       -0.07754924 0.013766758 0.05684094 -0.0009690109
0000e0 20 ec d9 3d 2d 26 3a be 65 dc 29 3e 2b 1c 82 3d
       0.106407404 -0.18178625 0.1658798 0.06353029
0000f0 6b 6f 86 3d 26 18 bf bc 1e 5c e9 3c eb 98 95 bc
       0.0656422 -0.023326945 0.028486308 -0.018261394
000100 90 ef 8b bc 98 d1 bc bd de 08 6c bc f1 03 1c 3d
       -0.017082006 -0.09219664 -0.014406411 0.038089696
000110 6a 91 1b 3d b0 e6 1d 3e b8 ae 7f bd b8 75 9a 3c
       0.037980475 0.15420032 -0.062422484 0.01885496
000120 c1 09 0d be 14 29 ec 3d 6b ae 0c 3d 16 c6 9e 3d
       -0.13773252 0.115312725 0.034346025 0.07752626
000130 0b 24 86 3d 48 da f9 3d a3 05 bf bc 07 6a bb bb
       0.065498434 0.12199837 -0.023318117 -0.0057194266
000140 4c 50 a0 3d a0 63 32 bd 7e 92 33 bd 54 81 2c 3d
       0.078278154 -0.04355204 -0.043840878 0.042115524
000150 e4 5b c3 3d d1 fa f8 bd 88 87 fb 3d 31 49 66 bc
       0.09539011 -0.121572144 0.1228171 -0.014055536
000160 7a 7c 7d 3d dd a2 31 be 61 26 00 be 22 7d 02 3e
       0.06188629 -0.17347284 -0.1251464 0.12743047
000170 22 b3 07 3e 82 62 ba 3c 4f cd 88 bd bc d6 43 3a
       0.13251927 0.02275205 -0.066797845 0.00074706576
000180 26 fe 6b bd 5c d2 59 3c 7b b0 24 3d c7 02 e6 3d
       -0.05761542 0.0132947825 0.040207367 0.112309985
000190 76 3b a5 bc 19 eb 6c bd ba eb 91 bd 54 71 29 be
       -0.020169955 -0.057841394 -0.071250394 -0.16547137
0001a0 20 e7 cf bc 6b 8e 65 bd ed 51 b5 3d 17 68 38 3e
       -0.025378764 -0.056044023 0.08853517 0.18008457
0001b0 e6 0e 4e 3d 54 eb 13 3c 65 90 19 be 7b a9 0a 3d
       0.050307177 0.009028275 -0.14996488 0.033853035
0001c0 57 82 74 bd ba 95 aa 3d a3 11 03 3e 21 a8 81 3d
       -0.059694614 0.08329339 0.12799697 0.06330896
0001d0 b1 76 d4 3d a8 0a f2 bc a2 45 81 bd fe 00 50 3c
       0.10374201 -0.029546097 -0.063121095 0.012695549
0001e0 23 04 17 be fe 5d dc bd a0 5d 5e 3d c4 c9 81 3d
       -0.14747672 -0.10760115 0.054288507 0.06337312
0001f0 d0 e4 c6 bd 08 87 29 3c 53 e6 7d 3c 90 5e e2 3d
       -0.09711611 0.010347135 0.015496808 0.110531926
000200 52 6d d2 3d e0 86 96 bd 6c b1 98 3b 42 6f f9 3d
       0.102747574 -0.07349944 0.004659822 0.12179424
000210 b2 57 af 3c 78 16 9d bd 87 48 1a be 05 50 96 3b
       0.021404121 -0.07670301 -0.1506673 0.004587176
000220 ff a8 b3 3d 57 4b 5f 3b 70 54 ca bc a8 c2 9e bd
       0.08772468 0.0034072006 -0.024698466 -0.077519715
000230 e0 f4 94 3d 19 9c b5 3d 5a 8c 1e 3b 25 f5 fd 3a
       0.07273269 0.08867664 0.0024192543 0.0019375427
000240 ea 0d 24 be 4f 53 8c bb 00 58 d1 39 18 33 65 3d
       -0.16020933 -0.004282392 0.00039929152 0.05595693
000250 4e 0e 67 3d de 35 40 3d 16 41 7c bd 6b ac 2a bd
       0.056410126 0.04692637 -0.06158551 -0.041668337
000260 e8 a4 47 bd 74 bd 18 3e 8e c4 61 bd 4c d8 fd bb
       -0.04874125 0.1491602 -0.05511909 -0.007746732
000270 da ce 0c be 9b 25 62 3d fd 99 e7 bd 91 b9 27 bd
       -0.13750783 0.055211645 -0.11308668 -0.040948454
000280 6f 3d 1a be 1d ad 53 3d b8 a9 49 3d 64 89 a5 bd
       -0.15062498 0.051678766 0.049234122 -0.08082846
000290 e8 3c fe 3d 2c 4c 5b 3c 36 b0 f2 3d 0b f5 82 bd
       0.12413961 0.01338486 0.11850016 -0.063943945
0002a0 5c 08 31 bc ca f8 e4 bb 34 54 1b 3e 5a 01 2b be
       -0.010805216 -0.006987666 0.1516884 -0.16699734
0002b0 b5 ef 51 bd 3c c7 1e 3e 9d b4 3f bd 68 65 fb 3d
       -0.051253993 0.1550569 -0.046803106 0.12275201
0002c0 b4 5a 91 bd 65 ea 28 3a 22 0d 0b 3e e2 60 3c 3d
       -0.070973784 0.0006443619 0.13579229 0.045990832
0002d0 46 32 21 3e f7 75 3d 3d 35 bb 9c bd 34 ee ed bc
       0.15741834 0.04625508 -0.076528944 -0.029044248
0002e0 bc 2c 44 bd 19 c9 23 3d 53 57 38 bc db 63 b7 3d
       -0.047894225 0.039986704 -0.0112512885 0.08954593
0002f0 a9 7b 7e bc 80 49 07 bc c1 d4 24 3c 4c eb e2 3b
       -0.015532413 -0.00825727 0.01006049 0.006925022
000300 85 5a 20 bd 9c 4a 92 bd 81 eb 27 3e ac ad fa 3d
       -0.039148826 -0.07143137 0.16398431 0.122401565
000310 e5 91 88 3d 55 33 ea 3d c8 c9 50 bd 03 55 87 bd
       0.06668452 0.11435572 -0.050973684 -0.066080116
000320 11 ad 3e 3d a3 2d 44 bc 8f ed 17 bd 64 12 2d 3d
       0.046551768 -0.011973771 -0.037091788 0.042253867
000330 20 57 ae 3c 49 b3 d4 3d a9 5d f1 3d 92 c3 d3 bb
       0.021281779 0.103857584 0.117854424 -0.006462523
000340 55 80 81 3d f4 19 4a 3c 8e 51 9f 3c 23 07 2e bd
       0.063233055 0.012335289 0.019448068 -0.042487275
000350 50 5d 50 3d 8d c1 1c 3d 14 fd 19 bc 2a 74 d0 3b
       0.05087024 0.038270522 -0.009398717 0.006361504
000360 d5 1d e4 bd 69 55 14 bd 67 49 08 bc 22 f4 ac 3d
       -0.111385025 -0.036214266 -0.008318282 0.08445002
000370 6c cd 1d 3e 8e 3c 3d bc 6e 0c 12 bd 4c b6 2a bc
       0.15410393 -0.011550082 -0.035656385 -0.0104194395
000380 6f 5e 26 be ec 9e 42 3d 6e 81 d6 3d 39 cb 04 3e
       -0.16246961 0.04751484 0.104739055 0.12968148
000390 eb 80 f3 bc 31 9f 8b bd 27 d0 5a bd 5a 61 13 be
       -0.029724559 -0.06817473 -0.053421166 -0.14392605
0003a0 60 07 e7 b9 7c ba b9 bd f6 b0 a8 3c db 19 56 3c
       -0.00044065248 -0.09068772 0.020592194 0.013067688
0003b0 eb 7b 1e bd 85 0e e1 bd 15 6c 25 3d cd 4d 01 3e
       -0.038692396 -0.109890975 0.04038628 0.12627335
0003c0 28 1d 98 3c 0f a5 1e 3e a7 42 97 3d 16 2f 3a 3c
       0.01856859 0.15492652 0.0738576 0.011363765
0003d0 73 77 33 3d 56 84 00 be ac d9 71 3c 0c 56 8a 3d
       0.043815088 -0.12550482 0.01476137 0.067546934
0003e0 48 df 2f bd c5 e4 8f 3c 3f f7 f1 bd 74 b3 09 3e
       -0.042937547 0.01756514 -0.118147366 0.13447362
0003f0 10 a7 2f 3d a3 41 8e 3d 40 be 05 bd 51 e9 b7 3d
       0.042883933 0.06946113 -0.03265214 0.089800484

lstm_layer.bias_ih_l0 f4 [256]
000000 f5 10 04 3e e1 ff af bc 31 05 fe 3c c5 14 05 bd
       0.12897094 -0.021484317 0.031008335 -0.03249051
000010 85 ab 1a bd 0a f0 84 3d 6d 9e 98 bd f5 4a c2 bc
       -0.03776123 0.06491096 -0.07452092 -0.023717383
000020 f2 3f 3c 3e 46 85 ab bd 71 df c8 3d 5c b2 9e 3d
       0.18383768 -0.08375029 0.09808243 0.07748863
000030 59 95 2a bd ba 8a 46 3d 22 bd 66 3c e1 c7 20 be
       -0.041646335 0.048472144 0.014083179 -0.15701248
000040 1c 72 13 be 5a 8b 0b be 6b 0d 0f 3e cb bf 81 bd
       -0.14398998 -0.13627377 0.13969962 -0.0633541
000050 16 8e 06 3d 82 04 57 bd ac a7 18 bc f2 3a 8d 3b
       0.032850347 -0.052494533 -0.00931732 0.0043100053
000060 69 3e 75 bd ea 31 3a bd b4 09 bf bc 74 7c e3 3d
       -0.059873972 -0.045457758 -0.023320056 0.11107722
000070 1b 9c 69 3c 30 8a 5d bc ba d2 10 3d ee 6e f4 3c
       0.01425841 -0.013521716 0.035357215 0.029838052
000080 2a f2 21 3e 42 1b 13 3e 2d 1a d1 3c c8 69 20 3e
       0.15815035 0.14365867 0.025525177 0.15665352
000090 88 b5 5c 3d c1 6b 90 bc 10 6f 23 bd f3 b8 0b 3e
       0.05388406 -0.017629506 -0.03990084 0.13644771
0000a0 5e 82 27 3e 34 03 52 bc d6 79 43 bd ce e2 04 3c
       0.16358325 -0.0128181465 -0.047723614 0.008110715
0000b0 03 07 a1 bd b0 0d 77 3d 32 51 d1 3b cf 65 24 3d
       -0.078626655 0.060315788 0.006387853 0.040136155
0000c0 99 27 1f bc ec df 39 bd ea 8b e9 bd e0 f5 c8 3d
       -0.009714031 -0.045379564 -0.114036396 0.09812522
0000d0 1e 03 0b 3e 08 21 2f 3d 39 bd 04 3d 44 28 de 3d
       0.13575408 0.04275611 0.03240702 0.10847524
0000e0 1c 9b 46 3e 16 27 26 3d a8 5a 1f 3e 46 9e 15 be
       0.19395107 0.04056462 0.15561926 -0.14611158
0000f0 3a e3 e8 3d 46 4a 89 3d 7e c5 fd 3c 72 43 f1 3c
       0.11371465 0.0670362 0.03097796 0.029451106
000100 16 45 85 bc a4 41 8b 3d f1 e7 16 be dd 04 46 bd
       -0.016268294 0.06799629 -0.14736916 -0.04834448
000110 39 19 b6 3d b9 d9 5a bc 8a 19 44 be 6c 82 f0 bd
       0.088915296 -0.013357573 -0.19150367 -0.11743626
000120 c6 01 0c bd 39 a6 1c be 70 28 e7 3c bc 08 33 3e
       -0.03418138 -0.15297784 0.028217524 0.174838
000130 51 b1 b5 bd 9a ac b7 bd 14 4b 40 bc 7e 79 10 bd
       -0.08871711 -0.08968468 -0.01173665 -0.035272114
000140 62 cf 39 bb 07 19 87 3d 56 e4 2c 3d 78 6e 8f bd
       -0.002835237 0.065965705 0.042209946 -0.07003492
000150 34 e7 bb bc 7a c3 61 3d 04 4d 55 3c fe b8 9d 3d
       -0.022937395 0.05511806 0.01301885 0.077013
000160 63 80 8c bd 2d e1 20 3d 90 98 04 be 0d 13 3e 3e
       -0.06860425 0.039277244 -0.12948823 0.18561955
000170 b3 e7 4a 3e 98 fc 70 3c 2b 12 5e bc 4f 7f 1c 3d
       0.19814949 0.014708661 -0.013554136 0.03820735
000180 c4 4f 5b bd ec a7 da bb 38 05 34 bc 00 7f cc 3d
       -0.053542867 -0.00667285 -0.010987572 0.09985161
000190 90 b1 85 3c 59 fe ec 3d 1f a1 30 be 65 1e 89 3d
       0.01632002 0.115719505 -0.17248963 0.066952504
0001a0 f8 03 cc 3d 0e 24 34 bd d2 56 97 3c 3f bd 17 3d
       0.099616945 -0.043979697 0.018474016 0.037045714
0001b0 0e 96 86 bd 5b 1d 15 3e e3 7c 6e 3d d5 5d 30 3d
       -0.065715894 0.1456198 0.05822457 0.043058235
0001c0 49 da 33 be d8 a3 8c bd da 7e a9 bd e9 04 c0 3d
       -0.17563738 -0.06867188 -0.08276148 0.093759365
0001d0 e2 e6 53 3c dc 06 bf bc 38 99 3b 3d bd ab 06 3e
       0.012933465 -0.0233187 0.045800418 0.1315145
0001e0 2a d2 46 3e f5 b7 11 3e d2 f0 65 3d 30 89 cb 3b
       0.19416109 0.1423033 0.056137867 0.0062114224
0001f0 60 0b 25 3d a7 e4 d1 3c 8c 7f 21 3c 31 08 7c bc
       0.04029405 0.025621725 0.00985707 -0.015382812
000200 8f 46 da 3d ac ad d3 bc ca 3b 1a 3e 60 30 90 3d
       0.10657989 -0.02583965 0.1506187 0.07040477
000210 38 16 b3 3c d7 8c a7 bc f1 8b 3f be fe f2 13 be
       0.02186118 -0.0204529 -0.18705727 -0.14448163
000220 09 9b 33 3e e2 f5 20 3d 96 ac 4e bd e1 c8 5c 3d
       0.1753961 0.039296992 -0.05045756 0.05390251
000230 0b 33 8c bc f1 a4 f8 bc 77 2d 43 3e 73 36 d3 bd
       -0.017114183 -0.030352088 0.19060312 -0.1031312
000240 da 2d 82 bd bb 79 1a 3d 88 4a 6b 3a 9c cd 89 3c
       -0.06356402 0.037713747 0.00089756446 0.016821675
000250 7d 15 ea bd c7 7a ae 3c 57 ff bb bc 19 fb 9b bd
       -0.1142988 0.02129878 -0.022948904 -0.076162525
000260 69 07 3a 3d bb 51 01 3e d9 10 11 bd 20 e3 66 3b
       0.045417223 0.12628834 -0.035416458 0.0035230592
000270 fe e9 c1 bd c4 2b 83 3c ff 76 d6 bd 0f bc ca 3d
       -0.094684586 0.01601208 -0.104719155 0.098991506
000280 69 ed 1a bc 4f 3a 2b 3e 41 d6 c4 3d ca 2d 00 be
       -0.009456017 0.16721462 0.09611178 -0.12517467
000290 69 03 33 3e 11 3f 10 3e b3 5f dc bd a4 7e 34 bd
       0.1748177 0.14086558 -0.10760441 -0.044066086
0002a0 01 34 30 be 3e 18 96 bd 9e ea e9 bd b2 df 53 3d
       -0.17207338 -0.073288426 -0.11421703 0.051727004
0002b0 41 7f ec 3d 78 a3 53 3d ea 1a 20 3d 75 61 aa 3c
       0.11547709 0.051669568 0.039088167 0.020798424
0002c0 76 98 04 3e 1d b9 26 3d b7 a0 37 3e e0 f0 e5 bd
       0.12948784 0.04070388 0.17932402 -0.11227584
0002d0 14 c5 e6 bd 69 27 8b 3d b6 1e 12 be 8d f4 cc 3c
       -0.112680584 0.06794626 -0.14269528 0.025018955
0002e0 6e f5 2c bd 26 76 a5 3c 26 a6 8f bc c7 02 f3 bc
       -0.042226247 0.02019794 -0.01753528 -0.02966441
0002f0 e6 ca 28 bd b4 75 22 be 03 c5 1c 3e 41 24 99 3d
       -0.041209124 -0.15865213 0.15309529 0.07477618
000300 8a 7f ae bc e7 9b 13 be 3d bf 8e bd 8d e3 21 bd
       -0.02130105 -0.14414941 -0.069700696 -0.03952365
000310 95 77 8b 3d 8d d8 04 3e af 53 12 bd a4 71 de bb
       0.06809918 0.12973233 -0.03572434 -0.0067884494
000320 e5 0d 2e 3d 74 36 9b 3b d3 8d 69 3d c8 1f 8a 3c
       0.04249372 0.004736716 0.05702002 0.016860858
000330 64 c2 d9 3d 3a 40 0f be b8 a1 80 3b 1d ab 08 bd
       0.1063278 -0.13989344 0.0039255284 -0.03336631
000340 50 cd 00 3c c4 8c d4 bd 08 19 02 3d 42 6a f4 bd
       0.00786145 -0.103784114 0.031762153 -0.119343296
000350 9f b9 c8 3d d0 57 36 3e a8 fc f8 3c 3a 14 f7 3d
       0.098010294 0.17806935 0.030393913 0.12064405
000360 67 b5 31 3e 0e 29 09 3e 92 06 74 bd bd 9a 39 bd
       0.17354356 0.13394567 -0.05957658 -0.045313586
000370 46 2e 3d 3e 97 c7 0f 3e 7f f2 47 bb 4d 89 34 bd
       0.18474683 0.14040981 -0.003050953 -0.044076253
000380 89 8c 16 3e f1 64 8b 3d c3 4c 8c 3c f6 fb 46 3e
       0.14702047 0.068063624 0.017126447 0.19432053
000390 e2 45 ad bc 40 1e aa bc 6f 7d 0a 3d ad be 05 3e
       -0.021151487 -0.020766377 0.03381103 0.13061018
0003a0 d1 14 01 bd f9 6b 51 3d e1 9b 08 be de 3f d1 bc
       -0.031513993 0.05112836 -0.13340713 -0.02554315
0003b0 19 b8 df bc 4d 8a ae 3d 0e 78 27 bd 38 fe a3 bd
       -0.027309464 0.085224725 -0.040885977 -0.08007473
0003c0 0e bb 48 be 30 ea 49 3e 03 18 cd bd a1 08 e6 3d
       -0.19602606 0.19718242 -0.100143455 0.112321146
0003d0 6c 40 0d 3e d4 14 80 bc e5 61 13 3e 7c 87 1a 3d
       0.13794106 -0.015634932 0.14392813 0.037726864
0003e0 8c 26 0b 3e 36 82 12 3e d3 a6 30 3c 29 43 50 bd
       0.13588923 0.14307484 0.0107819615 -0.0508453
0003f0 90 f1 bf 3c b0 56 16 3b a3 08 d4 bc 32 5e d5 bb
       0.023430616 0.0022939853 -0.025883025 -0.006511473

lstm_layer.bias_hh_l0 f4 [256]
000000 18 a7 a1 bc 85 f4 98 3d 32 4d 42 3c 35 fe 38 bd
       -0.019732997 0.074685134 0.011859225 -0.045164306
000010 50 ca 36 3e e0 86 2d 3e bb 25 c7 3c 0b e3 31 bd
       0.17850614 0.16945982 0.024309983 -0.043429416
000020 6f ff 25 3e 35 6e 0d be ab 0a e6 3d 70 43 ae 3b
       0.16210721 -0.13811572 0.112325035 0.005318098
000030 2b 93 52 bc e2 23 ba bd 0d 7a 01 bd f2 64 87 3d
       -0.01285247 -0.09088875 -0.031610537 0.06611051
000040 d5 64 db bd 8e c2 19 bd b5 a6 26 3e e5 ef 80 bd
       -0.107125916 -0.037539057 0.16274531 -0.06295756
000050 49 92 2a 3e d5 50 b6 bc c8 2c 28 3e b6 46 e0 3c
       0.16657366 -0.02225534 0.16423333 0.027377468
000060 f2 70 4c 3d 2e 84 9c 3d ef d8 66 bd ea ca 81 bc
       0.0499124 0.07642399 -0.056359228 -0.015843827
000070 45 44 54 bc 87 94 75 3d 41 e9 02 3e 5e cd 0a be
       -0.01295573 0.0599561 0.12784292 -0.13554904
000080 4c b2 f8 bb 65 d0 e5 3b eb 7f b4 bd 0a 1e 09 3e
       -0.007589614 0.007013368 -0.08813461 0.13390365
000090 2e bf b8 3d cc 62 44 3d 64 4c 0f be c1 bd 1d bd
       0.0902084 0.047945783 -0.13993984 -0.03851104
0000a0 c0 b7 8f 3d 2f d7 3a 3d c6 fe c1 bc 35 bd ad 3c
       0.070174694 0.04561537 -0.023681056 0.021208385
0000b0 19 8a 5f 3d de 46 19 3e 9a 77 9d 3d 33 42 2e bd
       0.05457506 0.1496844 0.07688828 -0.0425436
0000c0 72 cd 55 bd c9 b3 bb bc 63 b5 4e bd 77 39 36 3e
       -0.05219788 -0.022912877 -0.050465953 0.17795359
0000d0 c6 48 97 3c 84 3d 21 3e 1e b8 a3 3d c2 39 45 3e
       0.018467318 0.15746123 0.07994102 0.19260314
0000e0 99 9f 81 bc 72 13 df bc a2 9d 50 3d aa bb 9a 3d
       -0.015823172 -0.027230952 0.05093158 0.07555325
0000f0 5e d8 8e bd 18 57 93 3c 18 fe df bc 09 82 d3 3d
       -0.069748625 0.017985865 -0.027342841 0.103275366
000100 ae 61 64 3d 7e fd cf bd 60 a4 b9 bd f8 a4 e3 3b
       0.055757217 -0.10155772 -0.09064555 0.006947156
000110 fe e5 20 3d b4 aa 90 3d b0 a0 b3 bd 88 57 d1 bd
       0.039281838 0.07063809 -0.08770883 -0.102217734
000120 62 3c 3b 3d 6c ba c8 bc da af 0d 3e 98 19 99 3d
       0.045711882 -0.024502955 0.13836613 0.07475585
000130 1b 41 e2 3d 35 d6 c8 3c d5 5e c2 3c ab 9f fe 3c
       0.11047574 0.024516204 0.02372686 0.031081995
000140 78 5a a2 bd 36 13 ac bc b8 bc 24 3c dc 55 d1 3d
       -0.07927412 -0.021005254 0.01005476 0.102214545
000150 ea 9d c4 3c 0e eb cb 3d 68 f4 b8 3d d3 f9 21 3e
       0.02400108 0.099569425 0.09030992 0.15817957
000160 9a 74 f6 bc 14 be 8a 3d 3b c1 06 be 6c 9b 1d 3c
       -0.030084897 0.06774536 -0.13159649 0.009619575
000170 cb d4 42 3c 11 10 28 3d 6e 66 a5 3d c0 6d 4d 3d
       0.011891554 0.041030947 0.080761775 0.050153494
000180 ac 7f 28 3e f9 84 26 3e af a9 44 bd 31 5d 25 3d
       0.16454953 0.16261663 -0.048013385 0.040372077
000190 87 d0 f3 3d ce 09 84 3d a6 b0 88 bd 10 12 24 bd
       0.11905008 0.064471826 -0.06674318 -0.04005629
0001a0 40 72 d1 3d c0 ff 8c 3d 9f e9 2a be c7 6d 9d bc
       0.102268696 0.06884718 -0.16690682 -0.019217385
0001b0 38 1d b4 3d 4d cf f8 3d 31 8d fa 3d 6c 2b ed bd
       0.087946355 0.121489145 0.122339614 -0.11580548
0001c0 b0 28 bd bc f3 fd 48 bd 26 fc 1f be 92 f2 20 3e
       -0.02309069 -0.04907031 -0.15623531 0.15717533
0001d0 22 40 cf bd fc df 24 bd 8b 3c c0 3d 73 2c d5 3d
       -0.10119654 -0.04025267 0.09386548 0.10408869
0001e0 c6 8c e0 bc 03 36 03 3d 10 7d 00 bc 76 5a e6 3c
       -0.027410876 0.03203393 -0.007842317 0.028119307
0001f0 fb 81 94 bc a6 2b df bd cf 79 1b be b9 93 cf bd
       -0.018128386 -0.10896997 -0.15183185 -0.10135598
000200 8c da 94 3d 50 6b d0 bd 9a d6 c6 3d e6 de bb 3d
       0.07268247 -0.10176718 0.09708901 0.09173374
000210 b2 bc ae bd 95 6f 09 be 3c fe 88 bd d5 ae 02 bd
       -0.085320845 -0.13421471 -0.06689116 -0.031905014
000220 1d c3 fb 3d 6e a0 51 bc 17 73 ff bd f8 a2 94 3d
       0.12293074 -0.012794597 -0.124731235 0.07257646
000230 22 66 fe 3d 4a 0f 86 bd 21 db 9c bb 61 10 0c be
       0.12421824 -0.06545885 -0.0047868644 -0.13678123
000240 3a d4 a3 bc 1c ea 22 bd 8b c4 2d 3e 76 2c a7 bc
       -0.019998658 -0.039774045 0.16969506 -0.020406943
000250 c7 a9 02 be 32 ce 77 3d b1 49 d2 3d 97 6b fb 3d
       -0.12760077 0.060499378 0.10267962 0.122763805
000260 5d 20 d1 3d 0f b1 26 bd b4 b9 bc bc 5a 87 30 be
       0.10211251 -0.0406962 -0.023037769 -0.17239133
000270 16 c7 2b be 70 20 85 bd 5e ff 13 be bd 70 92 3d
       -0.16775164 -0.065003276 -0.14452884 0.07150409
000280 51 28 7a bd 4f 96 8c 3d 6f 3f c3 bd 87 eb 2c 3d
       -0.061073605 0.068646066 -0.095335834 0.042216804
000290 41 c1 17 3d 0c fc 83 3d d1 68 87 bd 5f 81 c6 3d
       0.037049536 0.064445585 -0.06611789 0.09692644
0002a0 b9 86 29 be 80 16 44 3d 50 53 9a bd cb a2 fe bd
       -0.16555299 0.04787302 -0.07535422 -0.12433394
0002b0 79 9f f9 bd 19 d2 c8 3d a6 8c 7a 3d a2 40 2c 3d
       -0.1218862 0.09805698 0.06116929 0.042053826
0002c0 07 0b 1d 3d 2a ba 8b bd 99 6e 9e 3d 53 d9 11 be
       0.038340595 -0.06822617 0.077359386 -0.14243059
0002d0 2e bf ed bd 6b 97 80 3d 26 60 15 be 06 d3 f5 3d
       -0.1160873 0.06278881 -0.14587459 0.1200314
0002e0 6d 53 17 3e 4c 8d 14 be 9a 1e ec 3d ed 2e 36 3e
       0.14777918 -0.14507025 0.11529274 0.17791338
0002f0 28 89 0f bc 66 c1 3a bd 10 02 c5 bc ef 0b 17 bd
       -0.008760728 -0.045594595 -0.024048835 -0.036876615
000300 07 87 18 3e 29 d0 8b bd cb 61 86 3d 38 f7 da 3c
       0.14895259 -0.06826813 0.06561621 0.026729211
000310 e3 96 80 3d 2c 22 5d 3e 58 2f cb bc 4b 30 98 bd
       0.06278779 0.21595067 -0.024802849 -0.07431086
000320 78 96 95 3d d2 b1 9b 3d be b0 d9 bc 36 01 51 3e
       0.0730409 0.07602276 -0.026573535 0.20410618
000330 70 83 65 bc 5e 58 10 be 34 b0 86 bc 6f 71 92 bd
       -0.014008388 -0.1409621 -0.016441442 -0.07150542
000340 29 11 47 3e b6 05 14 be 59 52 e7 bc 33 0c d7 3c
       0.1944014 -0.14455304 -0.028237509 0.026250934
000350 56 4b 28 3d 9c b2 f1 3d 98 71 a4 ba 68 23 22 bd
       0.04108747 0.11801645 -0.0012546061 -0.039584547
000360 7f 34 39 3e dd 8a 43 3e 64 86 d8 bd 5e 8a ad 3d
       0.18086432 0.19095941 -0.10572508 0.08473657
000370 0e 22 81 3d a5 d3 4c 3e 4d 7b da 3d 9e 07 3d 3a
       0.063053235 0.20002611 0.10668049 0.0007210913
000380 c1 36 11 bd 07 92 28 3e 91 ec 0d be b6 82 37 bb
       -0.035452608 0.16461955 -0.13859774 -0.0028001494
000390 a4 c4 0d bd 48 9b 28 3d dd c6 8a 3c ee 9b 98 bb
       -0.03461136 0.041163713 0.016940529 -0.00465726
0003a0 6a d2 68 bb d5 8a f8 3d 8c 1b 87 3d b2 59 13 3d
       -0.0035525807 0.12135855 0.06597051 0.035974212
0003b0 b8 da c1 bd a6 69 ca 3d e8 e6 20 3e 38 11 cf bb
       -0.094655454 0.09883432 0.15713084 -0.0063191913
0003c0 02 b4 c3 3b 41 81 90 bc 39 5f c4 bd 1d 63 a5 3c
       0.0059723863 -0.017639758 -0.09588475 0.020188862
0003d0 8f 55 eb bc ef da 9c 3d b6 75 b9 bc 42 c0 1b 3e
       -0.028727321 0.07658946 -0.022639137 0.1521006
0003e0 ce fe 24 3e 0f 34 27 3d 33 f0 b7 3d 64 bb 54 3d
       0.16112825 0.04082113 0.08981361 0.051936522
0003f0 14 9f 80 3d ca 46 bb bd 26 b0 82 bd e5 4a 33 3e
       0.06280342 -0.09144361 -0.06381254 0.17509039

fc.weight f4 [1, 65]
000000 0a 42 47 bf 58 78 96 bf 88 e3 fc bd 89 6a ae 3e
       -0.7783514 -1.1755476 -0.12348086 0.34065655
000010 98 a6 9a 3f 32 79 be 3f 28 4b 42 bf f2 9c c6 be
       1.208209 1.4880736 -0.7589593 -0.38791615
000020 a6 2a b8 3f a0 9a b7 bd 7b 6a af bf 59 c8 8b bf
       1.4388015 -0.08965039 -1.370437 -1.0920516
000030 2d cd d4 be 82 f4 9c bf 73 cd 90 3f bb e7 af be
       -0.41562787 -1.2262118 1.1312698 -0.34356484
000040 43 81 98 bf f6 e2 bc 3f 3c 6f 28 bf 26 23 88 3f
       -1.1914448 1.4756763 -0.6579473 1.0635726
000050 59 4b 74 3f fa cd 29 3f 0a fc bd 3d 78 6f 67 be
       0.9542747 0.6632992 0.09276588 -0.22601116
000060 8c 95 03 40 a4 66 99 bf fe 3f 4c bf 41 8d cb 3f
       2.0560026 -1.1984448 -0.79785144 1.5902482
000070 e6 64 2a bf 57 0b a5 3f b3 9e ef be f0 59 96 bd
       -0.6656021 1.2894086 -0.46800765 -0.07341373
000080 8e 2b 32 3f 92 34 50 3d 01 12 cf 3e a7 d9 4a be
       0.6959771 0.050831385 0.40443423 -0.1980959
000090 3b 66 ed 3e f8 77 4d bf 7b d0 05 bf 60 1a ec bf
       0.46367058 -0.8026118 -0.5227124 -1.8445549
0000a0 8a ea 87 bf 23 aa d7 3f 48 82 8f 3f 3d 0c 0c bf
       -1.0618451 1.6848797 1.1211634 -0.54706174
0000b0 45 36 a6 3f bd fa 03 c0 0c ed dd 3e 8d 4d 6f 3f
       1.2985312 -2.0621789 0.43344915 0.9347771
0000c0 03 89 9b 3f 18 19 b0 3e df d5 78 bf 76 da ed 3e
       1.2151188 0.34394145 -0.9720134 0.46455735
0000d0 9d 1b ba bf 9e 3b 6c bf bf 55 08 3e 2b f6 55 bf
       -1.4539677 -0.9227847 0.1331396 -0.8357875
0000e0 9a 86 01 c0 90 a6 04 3e 06 55 b1 be 46 a0 ba 3e
       -2.0238404 0.12954164 -0.3463518 0.36450404
0000f0 68 0c c1 3d 0f 6c 5d 3f 67 6b c5 bd fc 8d d2 bf
       0.094261944 0.8649301 -0.09639626 -1.644958
000100 29 50 9d 3f
       1.2290088

fc_final.weight f4 [1, 128]
000000 4b b3 99 3d 1b 95 33 3b 3c 0b 02 3d 0e 7d bb bc
       0.075049005 0.0027402106 0.031748995 -0.02288678
000010 82 7c b9 3d f2 47 da bd c8 57 4b bc cb dc 2e 3c
       0.09056951 -0.10658254 -0.012411065 0.010672758
000020 39 d6 e7 3d 43 80 f4 bc 67 12 0c be 86 da 1b 3e
       0.113201566 -0.029846316 -0.13678895 0.15220079
000030 83 cf 93 3d 02 d9 02 bd 53 17 62 3c 14 86 05 ba
       0.07217314 -0.031945236 0.013799506 -0.00050935266
000040 3d 5d 3f be e9 5d b9 3c 9f 73 31 3e 80 6f a5 bc
       -0.18687911 0.022627788 0.17329262 -0.020194769
000050 96 eb 0d be 87 1a 21 3e d3 ef 03 be d8 b5 0b 3e
       -0.138594 0.15732776 -0.12884454 0.13643587
000060 e1 c4 f5 3d 54 8c 3c 3e 9c 6d 9c bb 4e 03 44 be
       0.12000442 0.18412906 -0.0047738086 -0.19141886
000070 a6 17 12 be d8 44 e1 3d 06 b3 23 be 2d de d4 bc
       -0.14266834 0.10999459 -0.15986261 -0.025984848
000080 0d ba 3e 3e 60 59 3b 3e d4 ba 12 3c 0e 1c 0c be
       0.1862566 0.18295813 0.008955676 -0.13682577
000090 3c d8 b0 3d ab 7d 31 3e 6e 8f d8 3c cc 80 97 3d
       0.086349934 0.17333095 0.02643558 0.07397613
0000a0 22 59 ab bd 21 02 01 3e e9 86 04 bd 55 bd 01 be
       -0.0836661 0.12598468 -0.032355223 -0.1266988
0000b0 42 d0 37 bd 27 35 b9 3d 3e d0 19 3e 03 a2 2d 3c
       -0.044876345 0.09043341 0.15020844 0.010597709
0000c0 57 44 c8 bc ba e2 10 be 5a 36 8a bc b5 67 09 be
       -0.02444665 -0.1414899 -0.01687162 -0.13418467
0000d0 95 f8 3f be f8 9c ac 3d b8 d8 be bd 1f 03 10 3e
       -0.1874717 0.08428377 -0.093186796 0.1406369
0000e0 5a fa 1b 3e 6d 44 06 be 06 ab 1d 3e 9a 2f aa 3b
       0.1523222 -0.1311204 0.15397272 0.005193663
0000f0 de af 2c 3e b1 3d 9e bd a3 97 d1 bc 15 36 c1 bd
       0.16863963 -0.077266105 -0.025585001 -0.094341435
000100 60 7b 06 3d 01 47 3f 3b 55 a4 6a 3c fc c1 ec bd
       0.032832503 0.0029186609 0.014321406 -0.11560437
000110 50 c5 05 3e 3a 9a 5a 3c 99 47 18 3e 6b 04 2b 3e
       0.1306355 0.013342435 0.14871062 0.16700904
000120 8a 4a f5 bd d9 6a db 3c 4b 4f 26 be f8 17 8d 3c
       -0.11977108 0.026784347 -0.16241185 0.017223343
000130 dc 91 0b bd d0 cf 2b be f5 f6 68 3d e1 d4 cf 3c
       -0.03407465 -0.16778493 0.05687614 0.025370063
000140 dc df b1 3d c0 be d3 bd f2 1a e3 bd a7 47 30 be
       0.08685276 -0.10339117 -0.11089124 -0.17214833
000150 18 f0 06 3d 40 1a c2 bd ba 54 1b bb c8 2f 33 3e
       0.032943815 -0.09477663 -0.0023701624 0.17498696
000160 e0 a6 73 bb 7e ed ec 3d a4 9f 92 bc bc 3a 35 3c
       -0.0037178323 0.115687355 -0.017898388 0.011061367
000170 f0 92 25 be 68 5e 46 bc 2b 7a e3 bc 9a d2 cf 3d
       -0.16169333 -0.012107469 -0.027768215 0.10147591
000180 12 54 13 bd 44 18 0e bb 99 5a 9f 3b a0 0a 67 3c
       -0.035968848 -0.0021681944 0.004863095 0.014101654
000190 c2 a9 15 3e 5a da 1a 3e fb d6 09 be 84 54 bb 39
       0.14615539 0.15122357 -0.13460915 0.00035730388
0001a0 b4 9d c8 3d fa 18 46 bc 87 20 b2 3d 24 cd 22 bd
       0.097957045 -0.012090916 0.0869761 -0.03974642
0001b0 98 9b 89 bc 39 eb 14 3e 20 c4 15 3e 6c d4 01 be
       -0.016797826 0.14542855 0.14625597 -0.12678689
0001c0 ab 25 48 bd a5 c3 ad 3c cb 50 3e be 20 d4 f0 bc
       -0.048864048 0.021211455 -0.18585508 -0.029398024
0001d0 ae a0 07 bd 77 5e 1b 3e 68 b4 29 3e e5 32 f9 bd
       -0.03311222 0.15172754 0.16572726 -0.121679105
0001e0 04 2f bf bd e6 e3 04 3e 36 68 87 bc 24 c4 71 ba
       -0.093351394 0.12977561 -0.016529184 -0.00092226476
0001f0 e5 f8 c3 3d ba 68 8e 3c 1f b9 34 be 7f b3 dd 3d
       0.09568957 0.017383922 -0.17648743 0.10825252
