flood_forecast/da_rnn/checkpoint/encoder.pth (torch_old, 72317 bytes, 5 tensors)

lstm_layer.weight_ih_l0 f4 [256, 3]
000000 5c ed 0b be 3b 49 99 3d d4 e7 f4 bc 92 3c fa bd
       -0.13664764 0.07484671 -0.0298957 -0.12218584
000010 32 92 4c bd 41 fe 04 be f1 29 67 bd f9 9f 89 3d
       -0.04994411 -0.12987615 -0.056436483 0.067199655
000020 dd d1 f5 bd 9c 2a 05 3e 1d ad 52 3c 4e 65 b3 3d
       -0.12002919 0.13004535 0.012858656 0.08759557
000030 87 fb d0 3d 7a 46 1e 3e 8a 7c 17 3e 5f 43 26 be
       0.10204225 0.15456572 0.14793602 -0.16236638
000040 01 36 4b 3d c8 ef d7 bb 43 89 18 3e bd b9 08 3d
       0.04961205 -0.0065898634 0.14896111 0.03338026
000050 84 7a 0c 3b 38 d6 3e 3d f3 93 6b 3d 96 9d a5 bd
       0.002143533 0.046591014 0.057514142 -0.08086698
000060 e5 2c 39 3e 46 73 47 bd 16 f4 b3 3d ab 85 1b 3d
       0.18083532 -0.048693918 0.0878679 0.037969273
000070 53 cb 04 bd e0 45 66 bb fc 3f d5 ba a8 9a 94 bc
       -0.032420468 -0.0035136864 -0.0016269679 -0.018140152
000080 ff 4d 82 bc d0 45 0f be d4 3b b2 bc e2 b7 a3 3c
       -0.015906332 -0.13991475 -0.021757044 0.019985143
000090 5f 0b c7 bd 4d fa 05 be 05 59 6c bd dd ea 8f 3d
       -0.09718966 -0.13083763 -0.057702083 0.070272185
0000a0 70 84 83 3d 4e 22 1c 3e 39 f3 a0 3d c9 de 54 bd
       0.06421745 0.15247461 0.07858891 -0.051970277
0000b0 58 e3 aa 3c e2 8e d7 bd 3b 8e 08 3d ae bd 5e bd
       0.02086036 -0.105252996 0.033338767 -0.05438011
0000c0 47 22 e1 3d 8b 8f 9c 3b 76 18 09 ba c6 57 eb bc
       0.10992866 0.004777854 -0.000522978 -0.028728377
0000d0 e0 42 13 bd 1d 91 16 3d 84 35 c0 3d 44 6a 90 3c
       -0.03595245 0.036759485 0.09385207 0.017628796
0000e0 00 f3 48 3d 1e e4 64 3d 93 a8 8f bd 51 c7 1c 3c
       0.049059868 0.055881612 -0.07014575 0.009569005
0000f0 26 19 26 be 20 ae a1 bd 5f e3 95 bd e2 dc 24 3e
       -0.16220531 -0.0789454 -0.07318758 0.16099885
000100 d4 ad 6d 3d 82 79 8c 3d 41 a2 d9 bd a2 43 69 3d
       0.058027104 0.06859113 -0.106266506 0.056949265
000110 31 12 b2 bd f7 7f 89 3d 5e 8e 2e 3d 3f a2 13 3b
       -0.08694876 0.067138605 0.04261624 0.0022527126
000120 2b 33 c7 bd 4d 39 d1 3c 29 ea 04 be 4a e1 f5 3c
       -0.097265564 0.025540018 -0.1297995 0.030014653
000130 76 d8 32 3e 6e e5 a2 3d 58 ab 2a be 62 20 69 3c
       0.17465386 0.079539165 -0.16666925 0.014228912
000140 ee 45 96 3c 05 b2 44 bd de fd 28 be 5f 54 03 be
       0.018343892 -0.048021335 -0.16503093 -0.12825154
000150 3a 63 fc bc e9 86 61 3d 05 00 0c bd 51 5f d7 bd
       -0.030809034 0.0550603 -0.034179706 -0.10516227
000160 c6 04 a3 3d 15 49 62 3d 16 9b 02 be 24 9d 6a bd
       0.07959895 0.055245478 -0.12754473 -0.057278767
000170 dd b2 d1 bd b3 41 ff 3d 62 65 3f bd d0 be b5 3d
       -0.102391936 0.12463703 -0.046727546 0.08874285
000180 9b fc bb bd b0 b8 92 bd 5f dc 86 3d 99 48 1f be
       -0.0917904 -0.071641326 0.06585001 -0.15555038
000190 f1 4a e6 bd 68 47 99 3d e8 3c 8f 3d 7c 53 d4 3c
       -0.11244763 0.07484323 0.06994039 0.025918715
0001a0 7a 18 4a 3d d3 8b e1 bd e8 e7 29 3c c4 56 e6 bd
       0.04933975 -0.110129975 0.010370232 -0.11247018
0001b0 00 c7 32 b8 bb 3f a0 3c 14 2d a4 3d 72 c8 2b 3e
       -4.262384e-05 0.019561639 0.080164105 0.16775683
0001c0 5c 00 c0 3d 3e d0 2f 3d 3f e4 0f 3e 85 6b 28 3e
       0.093750685 0.042923205 0.14051913 0.16447265
0001d0 1a 1d 1b 3e 79 cf c7 bc 21 60 24 be 88 f1 44 3c
       0.1514782 -0.024390923 -0.16052295 0.012020476
0001e0 df 36 09 3e 9d b0 97 3d b6 46 65 3d 76 e3 10 be
       0.13399838 0.07406733 0.05597564 -0.1414927
0001f0 d5 d3 35 3d 7e 11 06 be cc 46 6a 3d 97 9c 13 3d
       0.044391472 -0.1309261 0.057196423 0.036038008
000200 4c c8 8d 3c ce ed 82 3d 56 1f 5f bd 1b 2b 13 be
       0.017307423 0.06393014 -0.054473244 -0.14371912
000210 42 01 a3 bd 84 a4 fc 3c d7 08 00 be ab 61 04 3e
       -0.07959224 0.030840166 -0.12503372 0.12927882
000220 21 07 8d 3d e2 6e 23 3e 30 52 49 3e d4 08 1f bc
       0.06886125 0.15960267 0.19660258 -0.009706695
000230 0a 94 f7 3d e8 fc ee 3d ee 02 7d bd 5e 6c a7 bc
       0.12088783 0.11669332 -0.061770372 -0.020437416
000240 68 b1 f3 bc a5 4c c8 bd dd 97 a6 bd 79 34 ea bd
       -0.02974768 -0.09780244 -0.08134434 -0.114357896
000250 80 8b ca bd 30 b3 24 bd 1e 51 0e 3e 11 e7 52 3d
       -0.09889889 -0.04020995 0.13898131 0.051489893
000260 d0 12 4a bc cf 8b bb bc ac 01 1c bd 77 43 0f be
       -0.012333587 -0.022893814 -0.038087532 -0.1399058
000270 fc 0c 41 bd b8 39 29 be 46 ac 22 3d 39 34 13 3e
       -0.047131523 -0.16525924 0.039715074 0.1437539
000280 b1 45 e9 bc 17 58 04 3e 42 89 d0 3d b5 7d f2 3d
       -0.028475614 0.12924229 0.1018243 0.11840383
000290 ee 67 93 bc 0a 5d 00 3e b9 63 00 3e e7 09 f8 bc
       -0.017993893 0.12535492 0.12538041 -0.03027816
0002a0 ba e1 35 3d 33 b4 43 bd cb 87 f8 3c 4f ac 18 3e
       0.044404723 -0.047779273 0.030338189 0.1490948
0002b0 6e 7c 48 3d 07 7f e7 bc 0f 36 8b bd 38 83 52 3d
       0.04894679 -0.028258814 -0.0679742 0.05139467
0002c0 a2 94 42 bd 23 ed dd bd 69 5e 25 be 55 bb bf bd
       -0.04750503 -0.10836246 -0.16149296 -0.093619026
0002d0 ab 5a d8 3c 6b 2a 1d 3d be 7d c5 3b 27 02 ee bd
       0.026410421 0.03837053 0.0060269525 -0.11621504
0002e0 df e8 29 3d f8 e8 93 bd 02 ba 5c 3c 4a 50 65 3d
       0.04148185 -0.0722217 0.013472082 0.055984773
0002f0 62 a3 84 bd ef e4 47 3e 67 24 68 3d f4 2d aa bc
       -0.06476475 0.19520925 0.05667534 -0.020773865
000300 96 fa 87 bd 17 b3 89 3c d8 2a cd 3b 9e 9d 02 be
       -0.06639592 0.01680903 0.006261211 -0.12755439
000310 86 4b 80 bd df 29 ae 3d 3a d5 f5 bd aa 6d 9c 3c
       -0.06264405 0.0850408 -0.1200356 0.01909526
000320 90 39 c6 b9 19 de 37 3e 0f 74 e4 3d 18 27 53 3d
       -0.0003780839 0.17955817 0.11154949 0.051550955
000330 98 57 0b 3d ed 3f cb 3c db c2 fd bc 61 87 ba 3b
       0.034019083 0.024810756 -0.030976703 0.005692408
000340 e2 35 b1 bd 2b 92 0e be ee 38 af 3d af 32 8e 3d
       -0.086528555 -0.13922946 0.0855578 0.06943261
000350 7c c6 d9 3d 90 a5 07 bc 7c f8 bf 3c b5 c7 06 3e
       0.10633561 -0.008279219 0.023433916 0.1316212
000360 cc 54 cd 3d 31 b3 00 3e 2a ca c6 3d 03 d5 d4 bd
       0.10025939 0.12568356 0.097065285 -0.10392191
000370 8d eb 2c bd 30 af 4b 3d 04 a6 c8 3d 9d e2 11 bc
       -0.042216826 0.04972762 0.0979729 -0.0089041265
000380 df c7 7f bc 06 9e 8b bd 18 99 13 be 92 3e b6 bd
       -0.015611618 -0.0681725 -0.1441387 -0.08898653
000390 3c 4f 91 3d 91 1f a5 ba 29 8d 2b be 6d b0 0d 3c
       0.07095191 -0.0012597908 -0.16753067 0.00864802
0003a0 e6 a9 cf 3d 5f f9 d1 3d 36 cb 21 be 74 84 45 3b
       0.101398274 0.10252642 -0.15800175 0.0030138763
0003b0 7a fc cc bd ce 23 3c bd ee 92 27 be 41 1e 22 be
       -0.100090936 -0.045932584 -0.16364643 -0.15831853
0003c0 0c 71 68 bd 5e f9 c2 bd 55 50 1d be ab a6 cc 3d
       -0.056748435 -0.09520219 -0.15362675 0.09992727
0003d0 8f f5 36 3d 1b 1a 1b 3d e8 c3 44 bc d0 c1 81 bd
       0.044667777 0.037866693 -0.012009598 -0.06335795
0003e0 ff 86 77 3d 58 93 49 3d cf 57 a4 bc 0f d0 d7 3d
       0.060431477 0.049212784 -0.020061402 0.10537731
0003f0 52 57 a1 3c 47 e6 28 bd 0a 7e e5 bd d8 4f 9d bd
       0.019694958 -0.041235235 -0.11205681 -0.076812446

lstm_layer.weight_hh_l0 f4 [256, 64]
000000 72 f7 03 3d cf d0 bc bd 25 0b a7 3d 51 77 ad 3c
       0.032218404 -0.092195146 0.081564225 0.021175059
000010 cb 9e a2 bc ae a3 27 be 2b 31 d8 bd 0d 46 58 3c
       -0.019851109 -0.16371033 -0.10556253 0.013200295
000020 ef 65 12 3e 67 87 5c bd ff 61 f4 3c d9 50 e8 3d
       0.14296697 -0.053840067 0.029831884 0.113435455
000030 7c 52 4b bd 9e de c3 3d b1 12 13 3e 87 04 fc 3d
       -0.04963921 0.09563945 0.14362599 0.12305551
000040 cd fb 0a 3d 0c 3f 06 3d 15 58 f1 bd f0 07 ce bd
       0.033931542 0.03277497 -0.117843784 -0.10060108
000050 0d dd 36 bd a7 3c fa bd 5c 8a a3 3c 64 30 96 3d
       -0.044644404 -0.122186 0.019963436 0.073334485
000060 93 e3 1e 3e da 28 bd bd c4 48 49 3d cd cb a7 3d
       0.155165 -0.092363074 0.04914166 0.08193169
000070 3f f4 9e bd 0f 24 35 bd 12 f6 5e 3d 20 23 1f bd
       -0.0776143 -0.04422384 0.05443389 -0.038851857
000080 c8 c1 b5 bd 3c f8 6c bc 09 c3 94 bd 94 6b b2 bd
       -0.088748515 -0.014463481 -0.072637625 -0.08711925
000090 3b 84 db 3d 18 0f 7f 3c 1f 79 d7 3d 17 b5 87 bd
       0.1071858 0.0155675635 0.10521149 -0.06626337
0000a0 b2 62 06 bd ac c4 e4 3b ba a8 50 3d 7b 50 be 3d
       -0.032808967 0.006981453 0.05094216 0.09292694
0000b0 88 99 bc 3d a8 9a 95 3d a7 82 1d be 0f 90 ae bd
       0.09208971 0.07304889 -0.15381871 -0.08523571
0000c0 28 d4 ee bb c1 cc 86 bd 04 8a 05 3e a2 e7 dc 3d
       -0.0072884746 -0.065820225 0.1304093 0.10786368
0000d0 86 a0 01 be b4 ac 03 be 4a b4 06 bd 22 e9 fb bc
       -0.12658891 -0.1285885 -0.03288678 -0.030750815
0000e0 7a 4f 35 bd 48 3a 47 3c 68 23 9f 3d eb f3 4a 3c
       -0.044265248 0.012159891 0.07770425 0.012387256
0000f0 73 dd c2 bd 17 77 0a be f4 79 6b 3d 42 aa 22 be
       -0.09514894 -0.13521992 0.05748935 -0.1588526
000100 38 57 40 3d f3 5b ce 3d 4e b0 97 3c 36 67 f3 3d
       0.04695818 0.10076132 0.018516686 0.1188492
000110 28 14 a3 bc 0e d3 29 3d 08 21 aa bc c7 82 83 bd
       -0.019907072 0.041461043 -0.020767704 -0.06421428
000120 2c 15 0d 3d 68 84 40 3c 72 e4 15 3d 0b 20 15 3d
       0.03444402 0.011750318 0.036594816 0.03640751
000130 b5 86 d2 3c 56 73 ea bc 5d 7d 83 bc 3f 0f 86 bc
       0.025698999 -0.02861945 -0.016050989 -0.016364692
000140 87 48 30 3c d0 b5 dd bd b6 9c f9 bd 06 83 fb bb
       0.010759479 -0.108256936 -0.12188093 -0.0076755313
000150 b2 0e 8a 3d a5 f7 27 3d f3 18 d8 3d 47 a0 05 3d
       0.06741084 0.041007657 0.10551634 0.032623556
000160 9b c2 b8 3d fd 40 17 3d 4d 5f 45 3d 5e 8c 5f bd
       0.09021493 0.036927212 0.04818659 -0.054577224
000170 8e 70 ad 3d 2f 86 12 3e 2c ae 09 be 7a 08 9f bd
       0.08468734 0.14309 -0.13445348 -0.07765289
000180 42 4e 46 bd 6c 88 51 3d 81 c9 b0 bd 57 ed 2b be
       -0.048414476 0.051155493 -0.08632184 -0.16789757
000190 de 49 eb bd 85 8d 44 bc a6 54 82 3d 16 00 a7 bd
       -0.114886984 -0.0119966315 0.06363802 -0.08154313
0001a0 8c 9c a2 bd f7 e6 81 bc 06 b0 cd bd b7 42 fc 3c
       -0.07940015 -0.015857203 -0.100433394 0.03079353
0001b0 bd 5c 02 3e 9a ab d1 bd 71 6a 2f 3d 06 11 a0 bd
       0.1273069 -0.102378085 0.04282612 -0.07815747
0001c0 f2 7e 19 3e 06 95 02 3d 54 f8 98 3d 94 c6 a2 3d
       0.14989832 0.0318804 0.0746924 0.07948032
0001d0 8d f4 da bd 5a 15 7e 3d 21 33 98 bd fc 0e 1c 3e
       -0.106911756 0.06203208 -0.07431627 0.15240091
0001e0 a4 ec cc 3d a1 76 33 bd 42 67 cb bc 29 3f e1 bc
       0.10006073 -0.043814305 -0.02482951 -0.027495937
0001f0 42 48 20 bd cb bc e1 bd e4 5f 1e 3d 70 02 0f 3d
       -0.03913141 -0.110223375 0.038665667 0.034914434
000200 32 3b 81 3d 74 dd 0c bd 28 95 2b 3c c7 d2 4e bd
       0.06310119 -0.03439088 0.010472573 -0.05049398
000210 6a 01 f6 ba 0b e7 1d 3d d0 d2 ac bd 81 c2 e6 bd
       -0.0018768732 0.038550418 -0.08438647 -0.112675674
000220 98 56 de bb 30 d6 bd 3b b5 9e 8c 3d fd 66 8e bd
       -0.006785225 0.0057933554 0.068662085 -0.06953237
000230 96 3b d6 ba 86 af f8 3d 8d c6 e2 3d 1b 05 2e 3e
       -0.0016344662 0.121428534 0.11073027 0.16994135
000240 63 b6 d4 bd 91 63 e3 3d 77 9e e3 bd b6 40 98 3d
       -0.1038635 0.11102975 -0.11114209 0.07434218
000250 b1 8e 1e bd 98 ff ae bd 74 19 10 3e 8f 63 83 bd
       -0.0387103 -0.085448444 0.1407221 -0.06415474
000260 31 e2 a8 3d e0 0c f9 bd 19 df 8d 3c 26 d8 21 be
       0.082462676 -0.12160659 0.017318295 -0.1580511
000270 c6 89 5b 3d b3 ff a7 3d 9b f5 97 bd c1 da c6 3c
       0.053598188 0.08203068 -0.074198924 0.024274232
000280 3d 38 07 3e 9a 21 7b bd 4b a8 2b be 79 8c 94 3d
       0.13205047 -0.06131134 -0.16763417 0.072533555
000290 78 41 10 3d ef 2d 47 3c fc 01 75 3d ca 10 a0 bd
       0.035218686 0.0121569475 0.059816346 -0.07815702
0002a0 81 cf b2 bd 30 e8 1d be 3a 09 c8 bc 33 32 e9 3d
       -0.087309845 -0.15420604 -0.024418462 0.11386528
0002b0 40 ae cc 3d 0b db 01 be 9e 4d 05 be 26 8a 8f bd
       0.09994173 -0.12681215 -0.1301789 -0.070087716
0002c0 18 32 23 3e 36 eb b6 3c ce 95 37 bc ee 03 e4 3b
       0.15937078 0.022328954 -0.01120515 0.0069584763
0002d0 33 66 2a 3c a1 c5 1b bd 9d 36 67 bd 82 8d 1c 3e
       0.010400343 -0.03803027 -0.056448568 0.15288356
0002e0 ee 65 8e 3d 55 03 1a be d9 05 27 3e 65 b2 9a 3c
       0.06953035 -0.15040334 0.16310824 0.018883893
0002f0 8e dc e6 bd c0 9f 0e 3d be 5d 08 3e f3 5e a7 bd
       -0.11272536 0.03482032 0.1331701 -0.08172407
000300 9a 22 cb bd 16 fb 8b 3d 3d 75 64 bd 4c 2a 04 bd
       -0.09918709 0.06835 -0.05577587 -0.0322669
000310 6a 32 94 bc fa e6 0c 3e a1 9a af 3d 77 4b fa bb
       -0.018090446 0.13759986 0.08574415 -0.0076383906
000320 e4 f8 0d be 2b 0a 19 3d 30 1f b2 bc fd 12 9d 3d
       -0.13864475 0.037363213 -0.021743387 0.07669637
000330 91 2c 0a 3e 26 30 15 bd f2 a8 af 3d 77 81 1a bd
       0.13493563 -0.03642287 0.08577146 -0.037721124
000340 e3 e6 23 3e fa 09 8e bd ac f3 25 be a0 67 1b be
       0.16006045 -0.06935497 -0.16206235 -0.15176249
000350 5f 2c 19 3e 33 52 5b bc f7 f2 ad bd db fe 9a 3c
       0.14958332 -0.013386297 -0.084936075 0.018920353
000360 6e 22 e0 bc d9 78 49 3e eb 8b 27 3d 6b fc 42 3e
       -0.027360167 0.19675006 0.04090492 0.19041602
000370 6c 8e ca bd 85 9c 4e 3d e1 b3 81 3d c4 b1 09 3e
       -0.09890446 0.050442237 0.06333137 0.13446718
000380 53 18 d7 bd 88 0e 10 3e 88 bb 05 3d d9 2a 32 3e
       -0.10502686 0.14068043 0.032649547 0.17399158
000390 7a 18 15 3e f8 ed 2c 3d f6 12 de bd 9f 3b e6 3d
       0.14560118 0.042219132 -0.1084346 0.112418406
0003a0 3f 5b 28 3e 93 51 db 3d c5 5d 2c 3e fb 95 3c be
       0.16441058 0.107089184 0.16832645 -0.18416588
0003b0 3d 4d 96 bd 50 0d 0d 3e 76 17 61 3e ce 1b 38 be
       -0.07338951 0.1377461 0.21981606 -0.17979357
0003c0 76 f2 29 be 95 3e 6c 3d 5c 8b 19 be 1a f6 88 bd
       -0.16596398 0.05767687 -0.14994568 -0.06687565
0003d0 07 a5 1e 3e 33 51 f7 3d 1b ab 83 3d 58 00 d4 ba
       0.1549264 0.120760344 0.0642912 -0.0016174419
0003e0 1c d7 cb ba 52 66 04 3d d2 2f b4 3a f7 25 73 3d
       -0.0015551778 0.032324143 0.0013747162 0.059362378
0003f0 cc 26 9c 3d 1c 41 d8 3d 7c 5b cd bd 6a 39 be 3c
       0.076245874 0.10559294 -0.10027215 0.023220737

lstm_layer.bias_ih_l0 f4 [256]
000000 88 bc fd bd 76 fd 89 bd 87 7e 1a be 77 60 db 3d
       -0.12389475 -0.06737797 -0.15087329 0.107117586
000010 bd 3e 54 3e 0c bb 32 be c3 d2 02 3e 6e e3 33 3c
       0.20727058 -0.17454165 0.12775712 0.010979516
000020 92 dd 30 3e 57 f2 a8 bc f4 f1 ee bc 96 a9 3f bc
       0.17272022 -0.02062337 -0.029168107 -0.011698147
000030 f8 83 ca bd 56 73 1a 3e 04 c1 80 bc 41 e1 2a be
       -0.09888452 0.1508306 -0.015717037 -0.1668749
000040 88 ef 19 bd a1 1d 3a 3e ce d3 5e 3d 25 b8 0a 3e
       -0.03758195 0.18175365 0.05440121 0.13546808
000050 8a 3d 31 bd fd ac ae 3d a1 20 73 bd 5f 4b 2a 3d
       -0.04327158 0.08529089 -0.05935729 0.041575786
000060 f7 a9 fc bd ae 5f 27 3e 53 68 c5 bd 73 bb 5a 3c
       -0.12337106 0.16345093 -0.09639039 0.013350355
000070 52 9f 5c 3d 33 fa 26 be fa 39 a7 3c d4 43 34 3e
       0.053862877 -0.16306381 0.020413388 0.17604
000080 4e 5b f6 bd df 46 c3 bd 38 18 51 bc 94 79 b8 bd
       -0.12029134 -0.09535002 -0.012762122 -0.09007564
000090 c5 b9 8d 3d f5 82 03 3d e0 55 38 bd db 98 80 bd
       0.06920198 0.032107312 -0.04500377 -0.06279155
0000a0 46 9b d3 3a 4b 2d 20 3d f7 af 0e be d1 92 e1 bd
       0.0016144298 0.039105695 -0.13934313 -0.11014331
0000b0 52 e3 a6 3c a5 e3 35 3e a4 79 3a 3e f7 57 49 3d
       0.020372067 0.17762621 0.18210465 0.049156155
0000c0 c6 4b 55 bc dd 86 8d 3d 93 86 cd 3c 87 57 94 3d
       -0.013018554 0.06910489 0.025088584 0.07243257
0000d0 be 06 81 3c ad bd 16 3e 73 cc 45 3e 66 04 4a 3e
       0.015750285 0.14720793 0.19316272 0.1972824
0000e0 3e f9 9c bc 45 b1 7f 3d e7 c9 41 3d 7a d7 a6 bd
       -0.019161817 0.062424917 0.04731169 -0.08146568
0000f0 80 81 f1 3c 21 9b 55 bd 1b c5 f1 bb 51 f1 9d 3d
       0.029480696 -0.052149896 -0.007378233 0.07712043
000100 3b 87 05 be 60 fb 26 be ce 2f 72 bd 9a f5 03 3e
       -0.13039868 -0.1630683 -0.05912762 0.12886658
000110 28 06 26 3e 3d 4c 7b bd 51 13 0f bd 3c 11 08 3e
       0.16213286 -0.061352003 -0.03493053 0.13287824
000120 eb 15 10 3e 13 ed 37 be 56 59 b1 3d 55 c1 2f bc
       0.14070861 -0.1796153 0.086596176 -0.010727246
000130 86 1c 12 be af 18 bc 3d 12 9f fc bc d5 7b 83 bc
       -0.14268693 0.091843955 -0.03083757 -0.016050259
000140 87 3e 5d 3d 92 f1 76 3d cc d4 06 bd b0 00 af 3d
       0.05401471 0.060288973 -0.032917783 0.08545053
000150 00 48 01 3d cc 72 10 3e 86 c8 29 bc 0a 3d 4d 3d
       0.031562805 0.14106292 -0.01036275 0.05010704
000160 76 83 76 bd 27 6b 48 3e 25 1d 84 bd 7e 48 71 bd
       -0.060183965 0.19572125 -0.064508714 -0.058907025
000170 42 cd 39 3d 45 0a 40 be 70 00 06 bd 0d 61 33 bd
       0.045361765 -0.18753918 -0.03271526 -0.043793727
000180 d5 63 88 3b ed fb 1e bd 47 59 1e be a1 3e c6 bd
       0.0041622915 -0.038814474 -0.15463744 -0.09679914
000190 cc 22 0f 3e 40 28 d4 3d 1f a8 ba 3d 1e fd 92 3c
       0.13978118 0.103592396 0.09114098 0.017942961
0001a0 2f ee 87 bd 5e 55 b2 3c d8 88 d8 3d f4 b5 25 be
       -0.06637227 0.021769222 0.10572976 -0.16182691
0001b0 a3 bd 10 bd 33 c3 90 3d 6c 2b 3a 3e 50 b4 35 bd
       -0.0353371 0.07068481 0.18180627 -0.044361413
0001c0 8a ee 73 bc 88 e3 24 be 09 7c e9 3d a8 15 e9 3d
       -0.014888415 -0.16102421 0.11400611 0.11381084
0001d0 5c 11 ba 3b 61 df 07 3e d2 d4 9e 3c dd 1a 90 3d
       0.005678339 0.13268806 0.01938859 0.07036374
0001e0 f2 7e c0 3d 77 57 39 3e 16 53 b6 bd f1 3c db bd
       0.09399213 0.18099771 -0.08902566 -0.10704983
0001f0 1b 8e cf 3d 36 84 cc bd 96 f3 d0 3d 2f d4 9f 3d
       0.10134526 -0.09986155 0.1020271 0.07804143
000200 4d 75 90 3d 63 f9 14 3d 7f 19 08 bc 30 ea 3f be
       0.07053623 0.036370646 -0.00830686 -0.18741679
000210 f7 1f 3a 3e f9 34 1c be b7 2a d9 3d a5 9a af bc
       0.18176256 -0.15254582 0.1060385 -0.021436045
000220 06 da fb 3c 7b c0 2e be 68 5d e6 bc 05 fd 15 3e
       0.03074361 -0.17065613 -0.028120711 0.146473
000230 74 5e 72 ba 2b 6c 23 bd d0 98 3a bd ab ea 0a bc
       -0.0009245642 -0.03989808 -0.04555589 -0.008478801
000240 75 7f 63 bd 81 73 84 bd 0d b9 d2 bc 4f ed 40 be
       -0.055541474 -0.06467343 -0.025723005 -0.18840526
000250 74 73 99 bd 1f fd 14 bd d1 b0 60 3d 94 70 29 3d
       -0.07492724 -0.036374208 0.054856125 0.04136713
000260 4c 35 1a 3e da b9 07 3e 0b 00 10 bd 4c be f0 bd
       0.15059394 0.1325449 -0.03515629 -0.11755046
000270 f4 0d a0 bc 37 1e 06 3e 24 fb 36 be 41 8b 03 bd
       -0.019537903 0.13097464 -0.1786924 -0.032115225
000280 eb 8c c9 bc e6 1f 28 3d 3c 60 2d be 63 dc 7b bd
       -0.024603328 0.041046046 -0.16931242 -0.061489474
000290 f8 7a e2 bb 05 65 a5 3d 3b 0d ae bd 6d a7 69 3d
       -0.0069116317 0.080759086 -0.08498617 0.057044435
0002a0 92 74 72 3d 40 72 e9 38 ee 50 fc 3c c4 d8 89 bc
       0.0591932 0.000111315865 0.030800309 -0.016826995
0002b0 3b 7a 8f bd 53 02 a3 3d 1b c4 08 3e 93 fb 09 3d
       -0.070057355 0.07959428 0.13356058 0.033687185
0002c0 e8 29 49 3b a7 0f a4 bd 77 c4 01 be 57 8a d1 bd
       0.0030695144 -0.08010798 -0.12672602 -0.10231464
0002d0 64 33 51 bd 03 83 94 3d 9c 02 f8 bb f3 a8 94 bd
       -0.0510744 0.07251551 -0.0075686704 -0.07258787
0002e0 30 85 7b 3d 58 85 3a bd a9 8f 33 3e 06 98 97 3d
       0.061406314 -0.045537323 0.17535271 0.07402043
0002f0 9b 30 1a 3e 60 82 2d be 4a cf 88 3d 3f c0 03 bb
       0.15057604 -0.16944265 0.06680162 -0.0020103601
000300 7b a3 0d be 87 30 26 be 20 45 91 bd ad bf 2f 3e
       -0.13831894 -0.16229449 -0.07093263 0.17162962
000310 95 03 02 3c dc 23 e1 3c fc 19 09 3e d9 28 82 3c
       0.007935424 0.02748292 0.13388819 0.015888618
000320 2e fa 23 3e 75 0b c2 bc 83 b4 07 3e fe 52 00 3d
       0.16013405 -0.023687104 0.13252454 0.031329148
000330 60 44 2c be 3d 9c 51 3e 54 1f 97 bd ac 1e 08 be
       -0.16822958 0.20469756 -0.07379022 -0.1329295
000340 19 ea cb bc ac ae ce 3d a0 a6 15 3e 8e be 15 3e
       -0.0248919 0.1009191 0.14614344 0.14623472
000350 48 64 26 be 2c 2f 7e bd 4a d3 97 bd 7c 1c 88 3d
       -0.16249192 -0.062056705 -0.07413347 0.06646058
000360 e5 40 7e bd 2f d0 1f 3e 18 95 68 3c e3 eb 5d 3c
       -0.062073607 0.1560676 0.014195703 0.013545009
000370 30 17 99 bb c9 36 69 bd 15 ab 23 be eb 7d ac 3d
       -0.0046719536 -0.056937013 -0.15983231 0.084224544
000380 c4 f4 81 3d 86 4c 39 be 8c 48 c8 bd 3f 41 aa bd
       0.063455135 -0.18095598 -0.09779462 -0.08313226
000390 c2 80 ba 3d 03 26 cd 3c fc 22 fb 3d d6 c3 c1 bd
       0.0910659 0.02504254 0.12262532 -0.09461181
0003a0 4c 80 1b 3e a2 17 81 3d f8 34 80 bd c4 c3 f7 bc
       0.1518566 0.06303336 -0.06260103 -0.030244716
0003b0 94 3c f5 bd 9c 63 3e 3e 08 35 c7 3d b4 0c 4a 3d
       -0.11974445 0.18592685 0.09726912 0.04932852
0003c0 d6 ba ff bc 77 30 2a be c0 9f cf 3a ad ce 1c be
       -0.03121702 -0.1662005 0.0015840456 -0.15313216
0003d0 e1 38 3d be 3f 08 49 3d 75 70 81 3d 02 f0 3d bb
       -0.18478729 0.04908013 0.063202776 -0.0028982167
0003e0 14 e1 98 bd 40 d4 bd b8 ac f9 22 bd 8d 23 05 be
       -0.07464805 -9.051757e-05 -0.039788887 -0.13001843
0003f0 b3 e5 96 3b 13 9a 2d bd f9 81 5f 3e 4c 35 3e 3c
       0.004605019 -0.042383265 0.21826924 0.011609387

lstm_layer.bias_hh_l0 f4 [256]
000000 96 d3 e6 bd 5e c2 df bd 6a 0a 82 bd 7c a3 29 3e
       -0.112708256 -0.109257445 -0.063496426 0.1656627
000010 ab 11 11 3e 62 97 b4 bc 60 b2 51 3e 11 8a 6e 3d
       0.14166896 -0.022044841 0.20478201 0.05823714
000020 96 17 f1 3d b7 b9 29 bb 4a c6 e9 3d 93 ec 90 bd
       0.11772077 -0.0025898048 0.11414774 -0.07076373
000030 01 4e 41 3c 46 16 b9 3c c8 27 39 3c a0 be 00 bc
       0.011798383 0.022593629 0.0113009885 -0.007857949
000040 5a de de 3d bd 6f 92 3d 16 53 be 3d da a0 df 3d
       0.10882254 0.07150219 0.09293191 0.10919352
000050 35 a1 19 be ae ab d6 bb 6c 7b c9 3c ae 91 ce bc
       -0.15002902 -0.0065512275 0.024594985 -0.02521595
000060 b7 46 b0 bd 5a 0c 14 3e 72 e6 f3 3c 5c 54 f4 bd
       -0.08607238 0.14457837 0.02977297 -0.11930153
000070 0e 30 a9 3d 69 1c 20 be da 76 98 3c f2 43 89 3d
       0.08261119 -0.15635838 0.01861136 0.06702413
000080 62 76 8f 3d 60 4f 1a be 77 d0 e0 bd f9 99 4b 3d
       0.070050016 -0.15069342 -0.109772615 0.049707387
000090 f9 ba 59 bc 1a 92 1a bd 4a e8 f0 3d f1 6c 58 3d
       -0.013289207 -0.03773699 0.117630556 0.05283827
0000a0 65 c2 c1 3d fa 78 c6 bd aa 10 1c be fd c9 9f 3d
       0.09460906 -0.09691043 -0.15240732 0.07802198
0000b0 52 9d b7 3c 64 ab d9 3d c3 f4 41 3e e6 b6 02 3e
       0.022413883 0.10628393 0.18941025 0.12765083
0000c0 3e fa d8 3b 13 f1 2c be ac 82 92 3d 86 2c cf bd
       0.006621628 -0.16888838 0.0715383 -0.10115914
0000d0 3e b9 35 be 74 24 54 3e e0 82 fe 3d 0e 0a 68 3c
       -0.17746446 0.20717031 0.12427306 0.0141625535
0000e0 72 5b e2 ba 20 1a 22 3d 3d 1d a4 bc 29 a2 17 bd
       -0.0017269684 0.039575696 -0.020033473 -0.037019882
0000f0 5f e1 e3 3d 48 04 e7 bd 48 6f 02 3e fe b9 21 3e
       0.111269705 -0.112801135 0.12737763 0.15793607
000100 d6 37 82 3a 57 ad 06 be 69 b0 99 3d aa bd 3f 3e
       0.0009934853 -0.13152061 0.07504351 0.18724695
000110 a0 c4 06 bd 47 db 3c 3d 29 01 4b 3d 73 2a 26 3e
       -0.03290236 0.046107557 0.049561653 0.1622713
000120 25 73 fa 3d 58 fc cc bd fe 87 5a 3e 78 de 98 3d
       0.12228993 -0.10009068 0.2134094 0.074643075
000130 e6 97 1a be 5c e1 08 3e 98 c4 a9 3d 71 c0 28 be
       -0.15097007 0.13367218 0.082894504 -0.1647966
000140 db b0 29 3e b4 3c c8 bc 1b 87 9f bd c7 eb e4 bc
       0.16571371 -0.024443008 -0.07789441 -0.027944459
000150 3b b8 05 be e0 54 db 3d 96 81 56 3a 62 97 57 3d
       -0.1305856 0.10709548 0.0008182762 0.052634604
000160 ab 75 26 be dd 0c 78 bc b0 5b 54 3d 97 79 11 3d
       -0.16255824 -0.015139786 0.051845253 0.035516348
000170 fc 50 91 bc bb 3b 81 bd 01 89 72 bd b8 a1 1a 3e
       -0.017738812 -0.06310221 -0.05921269 0.15100753
000180 1a 89 bd bd 3f 32 eb bd 05 cc fa bd 8f 45 16 be
       -0.09254666 -0.11484193 -0.12245945 -0.14674972
000190 fc 6e 09 3d a7 d8 29 3d 33 76 c7 3d 92 ac 9b bd
       0.03355311 0.04146638 0.097393416 -0.076012745
0001a0 08 61 48 3d 04 cb 71 bd 6b 0a 78 bd 0b ea 6f bb
       0.04892066 -0.0590315 -0.06055681 -0.0036608006
0001b0 e5 94 dd bd e0 50 89 bb b6 d4 09 3e 1f 66 01 3e
       -0.10819415 -0.0041905493 0.13460049 0.12636612
0001c0 0e a2 9c bc 32 fe 09 3d 5f 50 14 bd 7f 73 4e bd
       -0.019120242 0.033689685 -0.03620946 -0.050403114
0001d0 54 41 65 bc 3c d3 e4 3d f0 4e ff 3c 34 2b af 3d
       -0.013992626 0.11173102 0.03116557 0.08553162
0001e0 a4 eb af bd 50 e5 39 3d 92 e1 06 3d cb 07 95 bd
       -0.08589867 0.045384705 0.032929964 -0.07276877
0001f0 62 46 27 3c 12 6b 03 3c 05 54 df bc 8b ed 45 3e
       0.010209652 0.008021133 -0.027261743 0.19328897
000200 ef c1 20 bd c8 17 0f 3e d8 09 ea 3d 5e e0 4e bd
       -0.03924745 0.13973916 0.11427659 -0.050506942
000210 35 a9 1b 3e da 70 34 3d 65 0c 95 bd 20 56 e2 b8
       0.15201266 0.044052936 -0.07277755 -0.00010792562
000220 92 e0 8c bc c1 be d0 bd b0 77 d0 bd 06 ea 83 3d
       -0.017196927 -0.101926334 -0.101790786 0.06441121
000230 dc ec 59 3d b8 c8 77 ba 8e e7 42 bc 6b 0a 5f bc
       0.053204402 -0.00094522117 -0.011896027 -0.013613324
000240 55 0c 9d bc 77 a1 ce bd 3b 54 3a bd 08 13 2e 3d
       -0.01917092 -0.10089391 -0.045490485 0.04249862
000250 8e f0 7c 3d 94 ad f0 bd 3c 6e b0 3d ad 46 98 3d
       0.06175285 -0.117518574 0.086147755 0.07435355
000260 52 1f 9a 3b 9a 2e f2 bb 39 be 0a 3e 28 22 bb bd
       0.0047034407 -0.0073908092 0.13549127 -0.09137374
000270 ef ac 0f be fc 2a d2 3d b2 f2 84 bd 63 bd 44 3d
       -0.14030813 0.10262105 -0.06491603 0.048032176
000280 53 d0 87 bd c3 6f 2c be e1 a4 b4 3c d1 42 b0 bd
       -0.066315316 -0.16839509 0.022051277 -0.08606494
000290 89 65 3f 3e e1 97 15 3e 84 26 bd bd 67 08 5b 3d
       0.18691076 0.14608718 -0.09235862 0.05347481
0002a0 b0 c6 d1 3c 2a 08 8c bd 56 ce 80 3c 30 03 c6 3d
       0.025607437 -0.06837495 0.015723389 0.09668577
0002b0 c2 f5 a6 3d c6 a9 d6 bc ca ff 1e 3c 8a a3 9b bc
       0.08152343 -0.026204001 0.00970454 -0.01899888
0002c0 d9 24 9f 3d 87 97 be bd 69 af 82 3d d6 b0 36 bd
       0.077707 -0.09306245 0.06381113 -0.044602238
0002d0 81 d8 1a bd aa 73 64 3d 78 2b 8b bc f1 e0 19 3d
       -0.03780413 0.05577437 -0.016988501 0.037568036
0002e0 60 95 42 bd 17 07 28 3e d4 3b 55 3c f6 e2 8d 3d
       -0.047505736 0.16408955 0.013014752 0.06928055
0002f0 d6 c2 df 3c a3 99 07 be 52 e6 83 3d a8 ae 15 3e
       0.027314585 -0.13242202 0.064404145 0.14617407
000300 aa b9 08 be 40 6d 1d be 72 71 6b bd 85 ae 2f bc
       -0.13352075 -0.15373707 -0.057481237 -0.010722761
000310 c4 19 0b 3d 84 82 93 bb 3e b3 4b 3e 20 fc f1 3c
       0.03396012 -0.0045016427 0.19892594 0.029539168
000320 69 ce 7b 3d df 35 00 3d 58 09 05 3e 8c 8c 0f bd
       0.061476145 0.031301375 0.12991846 -0.035046145
000330 39 f1 28 be 1e 24 99 3d 05 1a f0 bc f4 b5 c5 bc
       -0.16498269 0.07477592 -0.029309282 -0.024134614
000340 ae 79 3f bb 90 4d 2c 3d c8 54 a9 3d bb 44 2e 3d
       -0.0029216814 0.042066157 0.08268124 0.042546015
000350 23 62 ae bd a8 8b fa 3d b7 87 dd bc 14 dc 1a 3e
       -0.08514812 0.122336686 -0.027042253 0.15123016
000360 14 bc db 3b fe 7d da 3d 3a 04 7f 3d 50 aa ba bd
       0.0067057703 0.10668562 0.06225989 -0.09114516
000370 a0 a7 8c 3a cd 72 23 be dd 2e a5 bd a0 6f e8 3c
       0.0010731108 -0.15961762 -0.08065579 0.02837354
000380 ce c9 e9 bd 93 95 d6 bd 90 0e 3b bd 59 43 a6 bd
       -0.11415444 -0.10477748 -0.045668185 -0.08118314
000390 cc ad b5 3d c7 6f 0e 3e 41 43 53 3e ac a0 8b 3d
       0.0887104 0.13909827 0.20631124 0.06817755
0003a0 b4 90 93 3c bb 9f b7 bc c0 fa 86 bd 7c c7 2e be
       0.018013336 -0.022415033 -0.065907955 -0.17068285
0003b0 bf 01 d0 bd b6 53 30 3e d1 4c db bc c4 19 31 3e
       -0.10156583 0.17219433 -0.026770027 0.17294985
0003c0 4b ca a8 3d c1 d4 55 3d 7a 76 38 3c f2 db 81 bb
       0.08241709 0.05220485 0.011258716 -0.003962987
0003d0 9c 31 88 3c 18 a8 02 3d b3 be 37 3e 13 29 5f 3d
       0.016625218 0.031898588 0.1794384 0.05448253
0003e0 c8 ef 87 3c fc 22 1a 3d 66 5b 19 3d 25 3b ae bd
       0.016593829 0.03763102 0.03744068 -0.08507375
0003f0 00 bf 87 bc 6e f6 40 3b 57 a9 29 3e b7 66 a2 3c
       -0.016570568 0.0029443759 0.16568504 0.019824369

attn_linear.weight f4 [1, 137]
000000 2b f5 12 bd ae 42 94 bd b7 44 3c bd 6d ea 72 bd
       -0.03587834 -0.07239281 -0.04596397 -0.059305597
000010 1a f8 2f bd 7e e4 e7 3c 1f 10 d1 3d b1 f4 03 3c
       -0.042961217 0.028307196 0.10208153 0.008053944
000020 6c 53 a9 bd 16 9e 8c 3d 42 af 7f bd 35 bf cd 3c
       -0.082678646 0.0686609 -0.062423 0.025115589
000030 07 d2 9c 3d 8d 09 13 3c a1 d2 2b 3d 74 71 0e 3d
       0.07657247 0.008974445 0.04194892 0.034776166
000040 f3 3b 98 3d fc 5a 93 bd f6 4c a0 bc 5e 77 72 bd
       0.074333094 -0.07195088 -0.019567948 -0.05919587
000050 4e d4 2b 3d b7 8a 70 bd 10 31 63 bd a7 26 27 3c
       0.041950516 -0.05872604 -0.05546671 0.0102020865
000060 1d 71 a2 3d 58 6d 85 3b ea 61 09 3b ce 84 a2 3b
       0.07931731 0.0040718727 0.0020962902 0.004959679
000070 41 d9 88 3c 2d ed 8c bd 06 a3 fc 3c 8e 9f 73 3d
       0.016705157 -0.06881175 0.030839454 0.059478335
000080 7f fa 18 3d d6 b2 a8 bd 9c f3 3d 3d ba 70 84 bd
       0.037348267 -0.08237235 0.046374902 -0.064668134
000090 73 6b a2 3d 58 fb 55 bd 5e 45 a1 bb 07 8a a1 3d
       0.079306506 -0.052241653 -0.0049215993 0.07887655
0000a0 9b 88 bf 3d 3f c7 62 bd 06 d6 93 3c ed 12 66 3d
       0.09352227 -0.055365797 0.01804639 0.056170393
0000b0 bc cf a9 bd d2 16 3c bb dc c6 aa bb bb 09 c4 bd
       -0.08291575 -0.0028700125 -0.005211694 -0.095721684
0000c0 f1 69 9f bd 51 c4 63 3d 63 9f c5 bd e5 e3 66 3d
       -0.077838786 0.055607144 -0.09649541 0.05636968
0000d0 6e 32 3a 3d 80 4a 42 3d 08 5a 96 3d f5 70 84 bd
       0.04545825 0.04743433 0.07341391 -0.06466857
0000e0 c1 38 d6 bd f1 5c 81 3b 5e ee 5d bd 61 0c 0c 3d
       -0.10460044 0.003947847 -0.054182403 0.034191493
0000f0 20 ae 35 3d a4 a8 43 bd 1c 52 99 3a aa cf 4c 3d
       0.04435551 -0.04776825 0.0011697444 0.05000273
000100 28 39 0c 3d b7 1c 2c 3d ea 87 f8 3c 59 e0 db bd
       0.034234196 0.042019572 0.030338246 -0.1073615
000110 cf 4f e9 3c 4e 60 13 3d 95 1d da bc 1b b8 f4 3c
       0.028480439 0.035980515 -0.026625434 0.029872945
000120 e9 8c cf bd 30 c8 ca 3c 42 d5 dc bd a8 13 3f 3d
       -0.10134298 0.02475366 -0.10782863 0.046649605
000130 2d 97 62 3d 63 63 6b 3c 8e 88 68 3b f1 ed 8e 3d
       0.055319954 0.014366957 0.0035481784 0.069789775
000140 9d 48 5b 3d f9 eb c2 bd 68 56 05 bc bc f1 9b bd
       0.053536046 -0.095176645 -0.008138277 -0.076144665
000150 1d bb 77 3d 8c 6d 47 bd e8 e0 7a bd 51 bf 7d 3d
       0.06048118 -0.048688456 -0.061249644 0.06195003
000160 db b4 cd bb 43 9d c2 3b 35 08 de 3c c1 27 d4 bc
       -0.006277663 0.005939157 0.027103523 -0.025897862
000170 2f 91 cf bd 5b 3a 89 3d 70 be 34 bd 6f 95 97 bc
       -0.101351134 0.067005835 -0.044126928 -0.018503873
000180 34 14 6a bd 83 89 53 3d 9e 83 e3 bd 45 2f 0a bd
       -0.057148173 0.051644813 -0.11109088 -0.033736486
000190 f0 94 98 3d e2 0a 17 3b a4 c1 a3 bd a4 3b c1 ba
       0.074502826 0.0023047258 -0.079959184 -0.0014742506
0001a0 c9 d5 33 bc 72 0d 1a 3d 40 d8 5a bd b0 c2 e3 bd
       -0.010976263 0.03761048 -0.05342889 -0.11121118
0001b0 94 22 b3 bd a3 53 a9 3d 8a 59 de 3d fb 73 e5 bd
       -0.0874683 0.082679056 0.10856922 -0.11203762
0001c0 0e 12 b4 bd 7d 09 a0 bd 80 a0 65 bd d6 1e 2a bd
       -0.08792506 -0.0781431 -0.056061268 -0.041533314
0001d0 2e 0b a5 ba ad ed b4 3d 0e 01 82 3d 1c bc 63 bd
       -0.0012591833 0.088343956 0.063478574 -0.055599317
0001e0 f0 e2 16 3c d9 57 09 3d e6 78 b5 bc 67 9e 32 bd
       0.00920938 0.033531044 -0.022152375 -0.043608095
0001f0 86 20 ca bc 74 b7 86 bd ba 1b fe bd b4 3c 21 3d
       -0.024673712 -0.0657796 -0.12407632 0.03936453
000200 97 f6 7e 3d e9 60 ee 3d d2 af 9d bb 6c e3 d3 3c
       0.062246885 0.11639578 -0.004812219 0.02586528
000210 68 31 b6 3d 28 75 72 3d a0 02 91 bc 41 e9 fd 3d
       0.08896142 0.05919376 -0.017701447 0.12398005
000220 67 d7 6e bc
       -0.014577723
